<?xml version="1.0" ?>
<net name="torch-jit-export" version="11">
	<layers>
		<layer id="0" name="input.1" type="Parameter" version="opset1">
			<data shape="1,3,512,512" element_type="f32"/>
			<rt_info>
				<attribute name="fused_names" version="0" value="input.1"/>
				<attribute name="old_api_map_element_type" version="0" value="f16"/>
			</rt_info>
			<output>
				<port id="0" precision="FP32" names="input.1">
					<dim>1</dim>
					<dim>3</dim>
					<dim>512</dim>
					<dim>512</dim>
				</port>
			</output>
		</layer>
		<layer id="1" name="conv1.weight_compressed" type="Const" version="opset1">
			<data element_type="f16" shape="64, 3, 7, 7" offset="0" size="18816"/>
			<output>
				<port id="0" precision="FP16">
					<dim>64</dim>
					<dim>3</dim>
					<dim>7</dim>
					<dim>7</dim>
				</port>
			</output>
		</layer>
		<layer id="2" name="conv1.weight" type="Convert" version="opset1">
			<data destination_type="f32"/>
			<rt_info>
				<attribute name="decompression" version="0"/>
				<attribute name="fused_names" version="0" value="conv1.weight"/>
			</rt_info>
			<input>
				<port id="0" precision="FP16">
					<dim>64</dim>
					<dim>3</dim>
					<dim>7</dim>
					<dim>7</dim>
				</port>
			</input>
			<output>
				<port id="1" precision="FP32" names="conv1.weight">
					<dim>64</dim>
					<dim>3</dim>
					<dim>7</dim>
					<dim>7</dim>
				</port>
			</output>
		</layer>
		<layer id="3" name="Convolution_362" type="Convolution" version="opset1">
			<data strides="2, 2" dilations="1, 1" pads_begin="3, 3" pads_end="3, 3" auto_pad="explicit"/>
			<rt_info>
				<attribute name="fused_names" version="0" value="Convolution_362"/>
			</rt_info>
			<input>
				<port id="0" precision="FP32">
					<dim>1</dim>
					<dim>3</dim>
					<dim>512</dim>
					<dim>512</dim>
				</port>
				<port id="1" precision="FP32">
					<dim>64</dim>
					<dim>3</dim>
					<dim>7</dim>
					<dim>7</dim>
				</port>
			</input>
			<output>
				<port id="2" precision="FP32">
					<dim>1</dim>
					<dim>64</dim>
					<dim>256</dim>
					<dim>256</dim>
				</port>
			</output>
		</layer>
		<layer id="4" name="Reshape_382_compressed" type="Const" version="opset1">
			<data element_type="f16" shape="1, 64, 1, 1" offset="18816" size="128"/>
			<output>
				<port id="0" precision="FP16">
					<dim>1</dim>
					<dim>64</dim>
					<dim>1</dim>
					<dim>1</dim>
				</port>
			</output>
		</layer>
		<layer id="5" name="Reshape_382" type="Convert" version="opset1">
			<data destination_type="f32"/>
			<rt_info>
				<attribute name="decompression" version="0"/>
			</rt_info>
			<input>
				<port id="0" precision="FP16">
					<dim>1</dim>
					<dim>64</dim>
					<dim>1</dim>
					<dim>1</dim>
				</port>
			</input>
			<output>
				<port id="1" precision="FP32">
					<dim>1</dim>
					<dim>64</dim>
					<dim>1</dim>
					<dim>1</dim>
				</port>
			</output>
		</layer>
		<layer id="6" name="428" type="Add" version="opset1">
			<data auto_broadcast="numpy"/>
			<rt_info>
				<attribute name="fused_names" version="0" value="428, Concat_381, Reshape_382"/>
			</rt_info>
			<input>
				<port id="0" precision="FP32">
					<dim>1</dim>
					<dim>64</dim>
					<dim>256</dim>
					<dim>256</dim>
				</port>
				<port id="1" precision="FP32">
					<dim>1</dim>
					<dim>64</dim>
					<dim>1</dim>
					<dim>1</dim>
				</port>
			</input>
			<output>
				<port id="2" precision="FP32" names="428">
					<dim>1</dim>
					<dim>64</dim>
					<dim>256</dim>
					<dim>256</dim>
				</port>
			</output>
		</layer>
		<layer id="7" name="429" type="Const" version="opset1">
			<data element_type="i64" shape="3" offset="18944" size="24"/>
			<rt_info>
				<attribute name="fused_names" version="0" value="429"/>
			</rt_info>
			<output>
				<port id="0" precision="I64" names="429">
					<dim>3</dim>
				</port>
			</output>
		</layer>
		<layer id="8" name="430" type="Reshape" version="opset1">
			<data special_zero="true"/>
			<rt_info>
				<attribute name="fused_names" version="0" value="430"/>
			</rt_info>
			<input>
				<port id="0" precision="FP32">
					<dim>1</dim>
					<dim>64</dim>
					<dim>256</dim>
					<dim>256</dim>
				</port>
				<port id="1" precision="I64">
					<dim>3</dim>
				</port>
			</input>
			<output>
				<port id="2" precision="FP32" names="430">
					<dim>1</dim>
					<dim>32</dim>
					<dim>131072</dim>
				</port>
			</output>
		</layer>
		<layer id="9" name="Constant_419" type="Const" version="opset1">
			<data element_type="i64" shape="1" offset="18968" size="8"/>
			<rt_info>
				<attribute name="fused_names" version="0" value="Constant_419"/>
			</rt_info>
			<output>
				<port id="0" precision="I64">
					<dim>1</dim>
				</port>
			</output>
		</layer>
		<layer id="10" name="MVN_420" type="MVN" version="opset6">
			<data eps="9.9999997473787516e-06" normalize_variance="true" eps_mode="INSIDE_SQRT"/>
			<rt_info>
				<attribute name="fused_names" version="0" value="433, Concat_439, Concat_484, MVN_420, Multiply_467, Reshape_440, Reshape_485"/>
			</rt_info>
			<input>
				<port id="0" precision="FP32">
					<dim>1</dim>
					<dim>32</dim>
					<dim>131072</dim>
				</port>
				<port id="1" precision="I64">
					<dim>1</dim>
				</port>
			</input>
			<output>
				<port id="2" precision="FP32" names="433">
					<dim>1</dim>
					<dim>32</dim>
					<dim>131072</dim>
				</port>
			</output>
		</layer>
		<layer id="11" name="434" type="ShapeOf" version="opset3">
			<data output_type="i64"/>
			<rt_info>
				<attribute name="fused_names" version="0" value="434"/>
			</rt_info>
			<input>
				<port id="0" precision="FP32">
					<dim>1</dim>
					<dim>64</dim>
					<dim>256</dim>
					<dim>256</dim>
				</port>
			</input>
			<output>
				<port id="1" precision="I64" names="434">
					<dim>4</dim>
				</port>
			</output>
		</layer>
		<layer id="12" name="435" type="Reshape" version="opset1">
			<data special_zero="true"/>
			<rt_info>
				<attribute name="fused_names" version="0" value="435"/>
			</rt_info>
			<input>
				<port id="0" precision="FP32">
					<dim>1</dim>
					<dim>32</dim>
					<dim>131072</dim>
				</port>
				<port id="1" precision="I64">
					<dim>4</dim>
				</port>
			</input>
			<output>
				<port id="2" precision="FP32" names="435">
					<dim>1</dim>
					<dim>64</dim>
					<dim>256</dim>
					<dim>256</dim>
				</port>
			</output>
		</layer>
		<layer id="13" name="Constant_30368_compressed" type="Const" version="opset1">
			<data element_type="f16" shape="1, 64, 1, 1" offset="18976" size="128"/>
			<output>
				<port id="0" precision="FP16">
					<dim>1</dim>
					<dim>64</dim>
					<dim>1</dim>
					<dim>1</dim>
				</port>
			</output>
		</layer>
		<layer id="14" name="Constant_30368" type="Convert" version="opset1">
			<data destination_type="f32"/>
			<rt_info>
				<attribute name="decompression" version="0"/>
			</rt_info>
			<input>
				<port id="0" precision="FP16">
					<dim>1</dim>
					<dim>64</dim>
					<dim>1</dim>
					<dim>1</dim>
				</port>
			</input>
			<output>
				<port id="1" precision="FP32">
					<dim>1</dim>
					<dim>64</dim>
					<dim>1</dim>
					<dim>1</dim>
				</port>
			</output>
		</layer>
		<layer id="15" name="437" type="Multiply" version="opset1">
			<data auto_broadcast="numpy"/>
			<rt_info>
				<attribute name="fused_names" version="0" value="436, 437"/>
			</rt_info>
			<input>
				<port id="0" precision="FP32">
					<dim>1</dim>
					<dim>64</dim>
					<dim>256</dim>
					<dim>256</dim>
				</port>
				<port id="1" precision="FP32">
					<dim>1</dim>
					<dim>64</dim>
					<dim>1</dim>
					<dim>1</dim>
				</port>
			</input>
			<output>
				<port id="2" precision="FP32" names="437">
					<dim>1</dim>
					<dim>64</dim>
					<dim>256</dim>
					<dim>256</dim>
				</port>
			</output>
		</layer>
		<layer id="16" name="Constant_30369_compressed" type="Const" version="opset1">
			<data element_type="f16" shape="1, 64, 1, 1" offset="19104" size="128"/>
			<output>
				<port id="0" precision="FP16">
					<dim>1</dim>
					<dim>64</dim>
					<dim>1</dim>
					<dim>1</dim>
				</port>
			</output>
		</layer>
		<layer id="17" name="Constant_30369" type="Convert" version="opset1">
			<data destination_type="f32"/>
			<rt_info>
				<attribute name="decompression" version="0"/>
			</rt_info>
			<input>
				<port id="0" precision="FP16">
					<dim>1</dim>
					<dim>64</dim>
					<dim>1</dim>
					<dim>1</dim>
				</port>
			</input>
			<output>
				<port id="1" precision="FP32">
					<dim>1</dim>
					<dim>64</dim>
					<dim>1</dim>
					<dim>1</dim>
				</port>
			</output>
		</layer>
		<layer id="18" name="439" type="Add" version="opset1">
			<data auto_broadcast="numpy"/>
			<rt_info>
				<attribute name="fused_names" version="0" value="438, 439"/>
			</rt_info>
			<input>
				<port id="0" precision="FP32">
					<dim>1</dim>
					<dim>64</dim>
					<dim>256</dim>
					<dim>256</dim>
				</port>
				<port id="1" precision="FP32">
					<dim>1</dim>
					<dim>64</dim>
					<dim>1</dim>
					<dim>1</dim>
				</port>
			</input>
			<output>
				<port id="2" precision="FP32" names="439">
					<dim>1</dim>
					<dim>64</dim>
					<dim>256</dim>
					<dim>256</dim>
				</port>
			</output>
		</layer>
		<layer id="19" name="440" type="ReLU" version="opset1">
			<rt_info>
				<attribute name="fused_names" version="0" value="440"/>
			</rt_info>
			<input>
				<port id="0" precision="FP32">
					<dim>1</dim>
					<dim>64</dim>
					<dim>256</dim>
					<dim>256</dim>
				</port>
			</input>
			<output>
				<port id="1" precision="FP32" names="440">
					<dim>1</dim>
					<dim>64</dim>
					<dim>256</dim>
					<dim>256</dim>
				</port>
			</output>
		</layer>
		<layer id="20" name="441" type="Const" version="opset1">
			<data element_type="i64" shape="3" offset="18944" size="24"/>
			<rt_info>
				<attribute name="fused_names" version="0" value="441"/>
			</rt_info>
			<output>
				<port id="0" precision="I64" names="441">
					<dim>3</dim>
				</port>
			</output>
		</layer>
		<layer id="21" name="442" type="Reshape" version="opset1">
			<data special_zero="true"/>
			<rt_info>
				<attribute name="fused_names" version="0" value="442"/>
			</rt_info>
			<input>
				<port id="0" precision="FP32">
					<dim>1</dim>
					<dim>64</dim>
					<dim>256</dim>
					<dim>256</dim>
				</port>
				<port id="1" precision="I64">
					<dim>3</dim>
				</port>
			</input>
			<output>
				<port id="2" precision="FP32" names="442">
					<dim>1</dim>
					<dim>32</dim>
					<dim>131072</dim>
				</port>
			</output>
		</layer>
		<layer id="22" name="Constant_536" type="Const" version="opset1">
			<data element_type="i64" shape="1" offset="18968" size="8"/>
			<rt_info>
				<attribute name="fused_names" version="0" value="Constant_536"/>
			</rt_info>
			<output>
				<port id="0" precision="I64">
					<dim>1</dim>
				</port>
			</output>
		</layer>
		<layer id="23" name="MVN_537" type="MVN" version="opset6">
			<data eps="9.9999997473787516e-06" normalize_variance="true" eps_mode="INSIDE_SQRT"/>
			<rt_info>
				<attribute name="fused_names" version="0" value="445, Concat_556, Concat_601, MVN_537, Multiply_584, Reshape_557, Reshape_602"/>
			</rt_info>
			<input>
				<port id="0" precision="FP32">
					<dim>1</dim>
					<dim>32</dim>
					<dim>131072</dim>
				</port>
				<port id="1" precision="I64">
					<dim>1</dim>
				</port>
			</input>
			<output>
				<port id="2" precision="FP32" names="445">
					<dim>1</dim>
					<dim>32</dim>
					<dim>131072</dim>
				</port>
			</output>
		</layer>
		<layer id="24" name="446" type="ShapeOf" version="opset3">
			<data output_type="i64"/>
			<rt_info>
				<attribute name="fused_names" version="0" value="446, 486"/>
			</rt_info>
			<input>
				<port id="0" precision="FP32">
					<dim>1</dim>
					<dim>64</dim>
					<dim>256</dim>
					<dim>256</dim>
				</port>
			</input>
			<output>
				<port id="1" precision="I64" names="446,486">
					<dim>4</dim>
				</port>
			</output>
		</layer>
		<layer id="25" name="447" type="Reshape" version="opset1">
			<data special_zero="true"/>
			<rt_info>
				<attribute name="fused_names" version="0" value="447"/>
			</rt_info>
			<input>
				<port id="0" precision="FP32">
					<dim>1</dim>
					<dim>32</dim>
					<dim>131072</dim>
				</port>
				<port id="1" precision="I64">
					<dim>4</dim>
				</port>
			</input>
			<output>
				<port id="2" precision="FP32" names="447">
					<dim>1</dim>
					<dim>64</dim>
					<dim>256</dim>
					<dim>256</dim>
				</port>
			</output>
		</layer>
		<layer id="26" name="Constant_30370_compressed" type="Const" version="opset1">
			<data element_type="f16" shape="1, 64, 1, 1" offset="19232" size="128"/>
			<output>
				<port id="0" precision="FP16">
					<dim>1</dim>
					<dim>64</dim>
					<dim>1</dim>
					<dim>1</dim>
				</port>
			</output>
		</layer>
		<layer id="27" name="Constant_30370" type="Convert" version="opset1">
			<data destination_type="f32"/>
			<rt_info>
				<attribute name="decompression" version="0"/>
			</rt_info>
			<input>
				<port id="0" precision="FP16">
					<dim>1</dim>
					<dim>64</dim>
					<dim>1</dim>
					<dim>1</dim>
				</port>
			</input>
			<output>
				<port id="1" precision="FP32">
					<dim>1</dim>
					<dim>64</dim>
					<dim>1</dim>
					<dim>1</dim>
				</port>
			</output>
		</layer>
		<layer id="28" name="449" type="Multiply" version="opset1">
			<data auto_broadcast="numpy"/>
			<rt_info>
				<attribute name="fused_names" version="0" value="448, 449"/>
			</rt_info>
			<input>
				<port id="0" precision="FP32">
					<dim>1</dim>
					<dim>64</dim>
					<dim>256</dim>
					<dim>256</dim>
				</port>
				<port id="1" precision="FP32">
					<dim>1</dim>
					<dim>64</dim>
					<dim>1</dim>
					<dim>1</dim>
				</port>
			</input>
			<output>
				<port id="2" precision="FP32" names="449">
					<dim>1</dim>
					<dim>64</dim>
					<dim>256</dim>
					<dim>256</dim>
				</port>
			</output>
		</layer>
		<layer id="29" name="Constant_30371_compressed" type="Const" version="opset1">
			<data element_type="f16" shape="1, 64, 1, 1" offset="19360" size="128"/>
			<output>
				<port id="0" precision="FP16">
					<dim>1</dim>
					<dim>64</dim>
					<dim>1</dim>
					<dim>1</dim>
				</port>
			</output>
		</layer>
		<layer id="30" name="Constant_30371" type="Convert" version="opset1">
			<data destination_type="f32"/>
			<rt_info>
				<attribute name="decompression" version="0"/>
			</rt_info>
			<input>
				<port id="0" precision="FP16">
					<dim>1</dim>
					<dim>64</dim>
					<dim>1</dim>
					<dim>1</dim>
				</port>
			</input>
			<output>
				<port id="1" precision="FP32">
					<dim>1</dim>
					<dim>64</dim>
					<dim>1</dim>
					<dim>1</dim>
				</port>
			</output>
		</layer>
		<layer id="31" name="451" type="Add" version="opset1">
			<data auto_broadcast="numpy"/>
			<rt_info>
				<attribute name="fused_names" version="0" value="450, 451"/>
			</rt_info>
			<input>
				<port id="0" precision="FP32">
					<dim>1</dim>
					<dim>64</dim>
					<dim>256</dim>
					<dim>256</dim>
				</port>
				<port id="1" precision="FP32">
					<dim>1</dim>
					<dim>64</dim>
					<dim>1</dim>
					<dim>1</dim>
				</port>
			</input>
			<output>
				<port id="2" precision="FP32" names="451">
					<dim>1</dim>
					<dim>64</dim>
					<dim>256</dim>
					<dim>256</dim>
				</port>
			</output>
		</layer>
		<layer id="32" name="452" type="ReLU" version="opset1">
			<rt_info>
				<attribute name="fused_names" version="0" value="452"/>
			</rt_info>
			<input>
				<port id="0" precision="FP32">
					<dim>1</dim>
					<dim>64</dim>
					<dim>256</dim>
					<dim>256</dim>
				</port>
			</input>
			<output>
				<port id="1" precision="FP32" names="452">
					<dim>1</dim>
					<dim>64</dim>
					<dim>256</dim>
					<dim>256</dim>
				</port>
			</output>
		</layer>
		<layer id="33" name="conv2.conv1.weight_compressed" type="Const" version="opset1">
			<data element_type="f16" shape="64, 64, 3, 3" offset="19488" size="73728"/>
			<output>
				<port id="0" precision="FP16">
					<dim>64</dim>
					<dim>64</dim>
					<dim>3</dim>
					<dim>3</dim>
				</port>
			</output>
		</layer>
		<layer id="34" name="conv2.conv1.weight" type="Convert" version="opset1">
			<data destination_type="f32"/>
			<rt_info>
				<attribute name="decompression" version="0"/>
				<attribute name="fused_names" version="0" value="conv2.conv1.weight"/>
			</rt_info>
			<input>
				<port id="0" precision="FP16">
					<dim>64</dim>
					<dim>64</dim>
					<dim>3</dim>
					<dim>3</dim>
				</port>
			</input>
			<output>
				<port id="1" precision="FP32" names="conv2.conv1.weight">
					<dim>64</dim>
					<dim>64</dim>
					<dim>3</dim>
					<dim>3</dim>
				</port>
			</output>
		</layer>
		<layer id="35" name="453" type="Convolution" version="opset1">
			<data strides="1, 1" dilations="1, 1" pads_begin="1, 1" pads_end="1, 1" auto_pad="explicit"/>
			<rt_info>
				<attribute name="fused_names" version="0" value="453"/>
			</rt_info>
			<input>
				<port id="0" precision="FP32">
					<dim>1</dim>
					<dim>64</dim>
					<dim>256</dim>
					<dim>256</dim>
				</port>
				<port id="1" precision="FP32">
					<dim>64</dim>
					<dim>64</dim>
					<dim>3</dim>
					<dim>3</dim>
				</port>
			</input>
			<output>
				<port id="2" precision="FP32" names="453">
					<dim>1</dim>
					<dim>64</dim>
					<dim>256</dim>
					<dim>256</dim>
				</port>
			</output>
		</layer>
		<layer id="36" name="454" type="Const" version="opset1">
			<data element_type="i64" shape="3" offset="18944" size="24"/>
			<rt_info>
				<attribute name="fused_names" version="0" value="454"/>
			</rt_info>
			<output>
				<port id="0" precision="I64" names="454">
					<dim>3</dim>
				</port>
			</output>
		</layer>
		<layer id="37" name="455" type="Reshape" version="opset1">
			<data special_zero="true"/>
			<rt_info>
				<attribute name="fused_names" version="0" value="455"/>
			</rt_info>
			<input>
				<port id="0" precision="FP32">
					<dim>1</dim>
					<dim>64</dim>
					<dim>256</dim>
					<dim>256</dim>
				</port>
				<port id="1" precision="I64">
					<dim>3</dim>
				</port>
			</input>
			<output>
				<port id="2" precision="FP32" names="455">
					<dim>1</dim>
					<dim>32</dim>
					<dim>131072</dim>
				</port>
			</output>
		</layer>
		<layer id="38" name="Constant_655" type="Const" version="opset1">
			<data element_type="i64" shape="1" offset="18968" size="8"/>
			<rt_info>
				<attribute name="fused_names" version="0" value="Constant_655"/>
			</rt_info>
			<output>
				<port id="0" precision="I64">
					<dim>1</dim>
				</port>
			</output>
		</layer>
		<layer id="39" name="MVN_656" type="MVN" version="opset6">
			<data eps="9.9999997473787516e-06" normalize_variance="true" eps_mode="INSIDE_SQRT"/>
			<rt_info>
				<attribute name="fused_names" version="0" value="458, Concat_675, Concat_720, MVN_656, Multiply_703, Reshape_676, Reshape_721"/>
			</rt_info>
			<input>
				<port id="0" precision="FP32">
					<dim>1</dim>
					<dim>32</dim>
					<dim>131072</dim>
				</port>
				<port id="1" precision="I64">
					<dim>1</dim>
				</port>
			</input>
			<output>
				<port id="2" precision="FP32" names="458">
					<dim>1</dim>
					<dim>32</dim>
					<dim>131072</dim>
				</port>
			</output>
		</layer>
		<layer id="40" name="459" type="ShapeOf" version="opset3">
			<data output_type="i64"/>
			<rt_info>
				<attribute name="fused_names" version="0" value="459"/>
			</rt_info>
			<input>
				<port id="0" precision="FP32">
					<dim>1</dim>
					<dim>64</dim>
					<dim>256</dim>
					<dim>256</dim>
				</port>
			</input>
			<output>
				<port id="1" precision="I64" names="459">
					<dim>4</dim>
				</port>
			</output>
		</layer>
		<layer id="41" name="460" type="Reshape" version="opset1">
			<data special_zero="true"/>
			<rt_info>
				<attribute name="fused_names" version="0" value="460"/>
			</rt_info>
			<input>
				<port id="0" precision="FP32">
					<dim>1</dim>
					<dim>32</dim>
					<dim>131072</dim>
				</port>
				<port id="1" precision="I64">
					<dim>4</dim>
				</port>
			</input>
			<output>
				<port id="2" precision="FP32" names="460">
					<dim>1</dim>
					<dim>64</dim>
					<dim>256</dim>
					<dim>256</dim>
				</port>
			</output>
		</layer>
		<layer id="42" name="Constant_30372_compressed" type="Const" version="opset1">
			<data element_type="f16" shape="1, 64, 1, 1" offset="93216" size="128"/>
			<output>
				<port id="0" precision="FP16">
					<dim>1</dim>
					<dim>64</dim>
					<dim>1</dim>
					<dim>1</dim>
				</port>
			</output>
		</layer>
		<layer id="43" name="Constant_30372" type="Convert" version="opset1">
			<data destination_type="f32"/>
			<rt_info>
				<attribute name="decompression" version="0"/>
			</rt_info>
			<input>
				<port id="0" precision="FP16">
					<dim>1</dim>
					<dim>64</dim>
					<dim>1</dim>
					<dim>1</dim>
				</port>
			</input>
			<output>
				<port id="1" precision="FP32">
					<dim>1</dim>
					<dim>64</dim>
					<dim>1</dim>
					<dim>1</dim>
				</port>
			</output>
		</layer>
		<layer id="44" name="462" type="Multiply" version="opset1">
			<data auto_broadcast="numpy"/>
			<rt_info>
				<attribute name="fused_names" version="0" value="461, 462"/>
			</rt_info>
			<input>
				<port id="0" precision="FP32">
					<dim>1</dim>
					<dim>64</dim>
					<dim>256</dim>
					<dim>256</dim>
				</port>
				<port id="1" precision="FP32">
					<dim>1</dim>
					<dim>64</dim>
					<dim>1</dim>
					<dim>1</dim>
				</port>
			</input>
			<output>
				<port id="2" precision="FP32" names="462">
					<dim>1</dim>
					<dim>64</dim>
					<dim>256</dim>
					<dim>256</dim>
				</port>
			</output>
		</layer>
		<layer id="45" name="Constant_30373_compressed" type="Const" version="opset1">
			<data element_type="f16" shape="1, 64, 1, 1" offset="93344" size="128"/>
			<output>
				<port id="0" precision="FP16">
					<dim>1</dim>
					<dim>64</dim>
					<dim>1</dim>
					<dim>1</dim>
				</port>
			</output>
		</layer>
		<layer id="46" name="Constant_30373" type="Convert" version="opset1">
			<data destination_type="f32"/>
			<rt_info>
				<attribute name="decompression" version="0"/>
			</rt_info>
			<input>
				<port id="0" precision="FP16">
					<dim>1</dim>
					<dim>64</dim>
					<dim>1</dim>
					<dim>1</dim>
				</port>
			</input>
			<output>
				<port id="1" precision="FP32">
					<dim>1</dim>
					<dim>64</dim>
					<dim>1</dim>
					<dim>1</dim>
				</port>
			</output>
		</layer>
		<layer id="47" name="464" type="Add" version="opset1">
			<data auto_broadcast="numpy"/>
			<rt_info>
				<attribute name="fused_names" version="0" value="463, 464"/>
			</rt_info>
			<input>
				<port id="0" precision="FP32">
					<dim>1</dim>
					<dim>64</dim>
					<dim>256</dim>
					<dim>256</dim>
				</port>
				<port id="1" precision="FP32">
					<dim>1</dim>
					<dim>64</dim>
					<dim>1</dim>
					<dim>1</dim>
				</port>
			</input>
			<output>
				<port id="2" precision="FP32" names="464">
					<dim>1</dim>
					<dim>64</dim>
					<dim>256</dim>
					<dim>256</dim>
				</port>
			</output>
		</layer>
		<layer id="48" name="465" type="ReLU" version="opset1">
			<rt_info>
				<attribute name="fused_names" version="0" value="465"/>
			</rt_info>
			<input>
				<port id="0" precision="FP32">
					<dim>1</dim>
					<dim>64</dim>
					<dim>256</dim>
					<dim>256</dim>
				</port>
			</input>
			<output>
				<port id="1" precision="FP32" names="465">
					<dim>1</dim>
					<dim>64</dim>
					<dim>256</dim>
					<dim>256</dim>
				</port>
			</output>
		</layer>
		<layer id="49" name="conv2.conv2.weight_compressed" type="Const" version="opset1">
			<data element_type="f16" shape="32, 64, 3, 3" offset="93472" size="36864"/>
			<output>
				<port id="0" precision="FP16">
					<dim>32</dim>
					<dim>64</dim>
					<dim>3</dim>
					<dim>3</dim>
				</port>
			</output>
		</layer>
		<layer id="50" name="conv2.conv2.weight" type="Convert" version="opset1">
			<data destination_type="f32"/>
			<rt_info>
				<attribute name="decompression" version="0"/>
				<attribute name="fused_names" version="0" value="conv2.conv2.weight"/>
			</rt_info>
			<input>
				<port id="0" precision="FP16">
					<dim>32</dim>
					<dim>64</dim>
					<dim>3</dim>
					<dim>3</dim>
				</port>
			</input>
			<output>
				<port id="1" precision="FP32" names="conv2.conv2.weight">
					<dim>32</dim>
					<dim>64</dim>
					<dim>3</dim>
					<dim>3</dim>
				</port>
			</output>
		</layer>
		<layer id="51" name="466" type="Convolution" version="opset1">
			<data strides="1, 1" dilations="1, 1" pads_begin="1, 1" pads_end="1, 1" auto_pad="explicit"/>
			<rt_info>
				<attribute name="fused_names" version="0" value="466"/>
			</rt_info>
			<input>
				<port id="0" precision="FP32">
					<dim>1</dim>
					<dim>64</dim>
					<dim>256</dim>
					<dim>256</dim>
				</port>
				<port id="1" precision="FP32">
					<dim>32</dim>
					<dim>64</dim>
					<dim>3</dim>
					<dim>3</dim>
				</port>
			</input>
			<output>
				<port id="2" precision="FP32" names="466">
					<dim>1</dim>
					<dim>32</dim>
					<dim>256</dim>
					<dim>256</dim>
				</port>
			</output>
		</layer>
		<layer id="52" name="467" type="Const" version="opset1">
			<data element_type="i64" shape="3" offset="18944" size="24"/>
			<rt_info>
				<attribute name="fused_names" version="0" value="467"/>
			</rt_info>
			<output>
				<port id="0" precision="I64" names="467">
					<dim>3</dim>
				</port>
			</output>
		</layer>
		<layer id="53" name="468" type="Reshape" version="opset1">
			<data special_zero="true"/>
			<rt_info>
				<attribute name="fused_names" version="0" value="468"/>
			</rt_info>
			<input>
				<port id="0" precision="FP32">
					<dim>1</dim>
					<dim>32</dim>
					<dim>256</dim>
					<dim>256</dim>
				</port>
				<port id="1" precision="I64">
					<dim>3</dim>
				</port>
			</input>
			<output>
				<port id="2" precision="FP32" names="468">
					<dim>1</dim>
					<dim>32</dim>
					<dim>65536</dim>
				</port>
			</output>
		</layer>
		<layer id="54" name="Constant_774" type="Const" version="opset1">
			<data element_type="i64" shape="1" offset="18968" size="8"/>
			<rt_info>
				<attribute name="fused_names" version="0" value="Constant_774"/>
			</rt_info>
			<output>
				<port id="0" precision="I64">
					<dim>1</dim>
				</port>
			</output>
		</layer>
		<layer id="55" name="MVN_775" type="MVN" version="opset6">
			<data eps="9.9999997473787516e-06" normalize_variance="true" eps_mode="INSIDE_SQRT"/>
			<rt_info>
				<attribute name="fused_names" version="0" value="471, Concat_794, Concat_839, MVN_775, Multiply_822, Reshape_795, Reshape_840"/>
			</rt_info>
			<input>
				<port id="0" precision="FP32">
					<dim>1</dim>
					<dim>32</dim>
					<dim>65536</dim>
				</port>
				<port id="1" precision="I64">
					<dim>1</dim>
				</port>
			</input>
			<output>
				<port id="2" precision="FP32" names="471">
					<dim>1</dim>
					<dim>32</dim>
					<dim>65536</dim>
				</port>
			</output>
		</layer>
		<layer id="56" name="472" type="ShapeOf" version="opset3">
			<data output_type="i64"/>
			<rt_info>
				<attribute name="fused_names" version="0" value="472"/>
			</rt_info>
			<input>
				<port id="0" precision="FP32">
					<dim>1</dim>
					<dim>32</dim>
					<dim>256</dim>
					<dim>256</dim>
				</port>
			</input>
			<output>
				<port id="1" precision="I64" names="472">
					<dim>4</dim>
				</port>
			</output>
		</layer>
		<layer id="57" name="473" type="Reshape" version="opset1">
			<data special_zero="true"/>
			<rt_info>
				<attribute name="fused_names" version="0" value="473"/>
			</rt_info>
			<input>
				<port id="0" precision="FP32">
					<dim>1</dim>
					<dim>32</dim>
					<dim>65536</dim>
				</port>
				<port id="1" precision="I64">
					<dim>4</dim>
				</port>
			</input>
			<output>
				<port id="2" precision="FP32" names="473">
					<dim>1</dim>
					<dim>32</dim>
					<dim>256</dim>
					<dim>256</dim>
				</port>
			</output>
		</layer>
		<layer id="58" name="Constant_30374_compressed" type="Const" version="opset1">
			<data element_type="f16" shape="1, 32, 1, 1" offset="130336" size="64"/>
			<output>
				<port id="0" precision="FP16">
					<dim>1</dim>
					<dim>32</dim>
					<dim>1</dim>
					<dim>1</dim>
				</port>
			</output>
		</layer>
		<layer id="59" name="Constant_30374" type="Convert" version="opset1">
			<data destination_type="f32"/>
			<rt_info>
				<attribute name="decompression" version="0"/>
			</rt_info>
			<input>
				<port id="0" precision="FP16">
					<dim>1</dim>
					<dim>32</dim>
					<dim>1</dim>
					<dim>1</dim>
				</port>
			</input>
			<output>
				<port id="1" precision="FP32">
					<dim>1</dim>
					<dim>32</dim>
					<dim>1</dim>
					<dim>1</dim>
				</port>
			</output>
		</layer>
		<layer id="60" name="475" type="Multiply" version="opset1">
			<data auto_broadcast="numpy"/>
			<rt_info>
				<attribute name="fused_names" version="0" value="474, 475"/>
			</rt_info>
			<input>
				<port id="0" precision="FP32">
					<dim>1</dim>
					<dim>32</dim>
					<dim>256</dim>
					<dim>256</dim>
				</port>
				<port id="1" precision="FP32">
					<dim>1</dim>
					<dim>32</dim>
					<dim>1</dim>
					<dim>1</dim>
				</port>
			</input>
			<output>
				<port id="2" precision="FP32" names="475">
					<dim>1</dim>
					<dim>32</dim>
					<dim>256</dim>
					<dim>256</dim>
				</port>
			</output>
		</layer>
		<layer id="61" name="Constant_30375_compressed" type="Const" version="opset1">
			<data element_type="f16" shape="1, 32, 1, 1" offset="130400" size="64"/>
			<output>
				<port id="0" precision="FP16">
					<dim>1</dim>
					<dim>32</dim>
					<dim>1</dim>
					<dim>1</dim>
				</port>
			</output>
		</layer>
		<layer id="62" name="Constant_30375" type="Convert" version="opset1">
			<data destination_type="f32"/>
			<rt_info>
				<attribute name="decompression" version="0"/>
			</rt_info>
			<input>
				<port id="0" precision="FP16">
					<dim>1</dim>
					<dim>32</dim>
					<dim>1</dim>
					<dim>1</dim>
				</port>
			</input>
			<output>
				<port id="1" precision="FP32">
					<dim>1</dim>
					<dim>32</dim>
					<dim>1</dim>
					<dim>1</dim>
				</port>
			</output>
		</layer>
		<layer id="63" name="477" type="Add" version="opset1">
			<data auto_broadcast="numpy"/>
			<rt_info>
				<attribute name="fused_names" version="0" value="476, 477"/>
			</rt_info>
			<input>
				<port id="0" precision="FP32">
					<dim>1</dim>
					<dim>32</dim>
					<dim>256</dim>
					<dim>256</dim>
				</port>
				<port id="1" precision="FP32">
					<dim>1</dim>
					<dim>32</dim>
					<dim>1</dim>
					<dim>1</dim>
				</port>
			</input>
			<output>
				<port id="2" precision="FP32" names="477">
					<dim>1</dim>
					<dim>32</dim>
					<dim>256</dim>
					<dim>256</dim>
				</port>
			</output>
		</layer>
		<layer id="64" name="478" type="ReLU" version="opset1">
			<rt_info>
				<attribute name="fused_names" version="0" value="478"/>
			</rt_info>
			<input>
				<port id="0" precision="FP32">
					<dim>1</dim>
					<dim>32</dim>
					<dim>256</dim>
					<dim>256</dim>
				</port>
			</input>
			<output>
				<port id="1" precision="FP32" names="478">
					<dim>1</dim>
					<dim>32</dim>
					<dim>256</dim>
					<dim>256</dim>
				</port>
			</output>
		</layer>
		<layer id="65" name="conv2.conv3.weight_compressed" type="Const" version="opset1">
			<data element_type="f16" shape="32, 32, 3, 3" offset="130464" size="18432"/>
			<output>
				<port id="0" precision="FP16">
					<dim>32</dim>
					<dim>32</dim>
					<dim>3</dim>
					<dim>3</dim>
				</port>
			</output>
		</layer>
		<layer id="66" name="conv2.conv3.weight" type="Convert" version="opset1">
			<data destination_type="f32"/>
			<rt_info>
				<attribute name="decompression" version="0"/>
				<attribute name="fused_names" version="0" value="conv2.conv3.weight"/>
			</rt_info>
			<input>
				<port id="0" precision="FP16">
					<dim>32</dim>
					<dim>32</dim>
					<dim>3</dim>
					<dim>3</dim>
				</port>
			</input>
			<output>
				<port id="1" precision="FP32" names="conv2.conv3.weight">
					<dim>32</dim>
					<dim>32</dim>
					<dim>3</dim>
					<dim>3</dim>
				</port>
			</output>
		</layer>
		<layer id="67" name="479" type="Convolution" version="opset1">
			<data strides="1, 1" dilations="1, 1" pads_begin="1, 1" pads_end="1, 1" auto_pad="explicit"/>
			<rt_info>
				<attribute name="fused_names" version="0" value="479"/>
			</rt_info>
			<input>
				<port id="0" precision="FP32">
					<dim>1</dim>
					<dim>32</dim>
					<dim>256</dim>
					<dim>256</dim>
				</port>
				<port id="1" precision="FP32">
					<dim>32</dim>
					<dim>32</dim>
					<dim>3</dim>
					<dim>3</dim>
				</port>
			</input>
			<output>
				<port id="2" precision="FP32" names="479">
					<dim>1</dim>
					<dim>32</dim>
					<dim>256</dim>
					<dim>256</dim>
				</port>
			</output>
		</layer>
		<layer id="68" name="480" type="Concat" version="opset1">
			<data axis="1"/>
			<rt_info>
				<attribute name="fused_names" version="0" value="480"/>
			</rt_info>
			<input>
				<port id="0" precision="FP32">
					<dim>1</dim>
					<dim>64</dim>
					<dim>256</dim>
					<dim>256</dim>
				</port>
				<port id="1" precision="FP32">
					<dim>1</dim>
					<dim>32</dim>
					<dim>256</dim>
					<dim>256</dim>
				</port>
				<port id="2" precision="FP32">
					<dim>1</dim>
					<dim>32</dim>
					<dim>256</dim>
					<dim>256</dim>
				</port>
			</input>
			<output>
				<port id="3" precision="FP32" names="480">
					<dim>1</dim>
					<dim>128</dim>
					<dim>256</dim>
					<dim>256</dim>
				</port>
			</output>
		</layer>
		<layer id="69" name="481" type="Const" version="opset1">
			<data element_type="i64" shape="3" offset="18944" size="24"/>
			<rt_info>
				<attribute name="fused_names" version="0" value="481"/>
			</rt_info>
			<output>
				<port id="0" precision="I64" names="481">
					<dim>3</dim>
				</port>
			</output>
		</layer>
		<layer id="70" name="482" type="Reshape" version="opset1">
			<data special_zero="true"/>
			<rt_info>
				<attribute name="fused_names" version="0" value="482"/>
			</rt_info>
			<input>
				<port id="0" precision="FP32">
					<dim>1</dim>
					<dim>64</dim>
					<dim>256</dim>
					<dim>256</dim>
				</port>
				<port id="1" precision="I64">
					<dim>3</dim>
				</port>
			</input>
			<output>
				<port id="2" precision="FP32" names="482">
					<dim>1</dim>
					<dim>32</dim>
					<dim>131072</dim>
				</port>
			</output>
		</layer>
		<layer id="71" name="Constant_894" type="Const" version="opset1">
			<data element_type="i64" shape="1" offset="18968" size="8"/>
			<rt_info>
				<attribute name="fused_names" version="0" value="Constant_894"/>
			</rt_info>
			<output>
				<port id="0" precision="I64">
					<dim>1</dim>
				</port>
			</output>
		</layer>
		<layer id="72" name="MVN_895" type="MVN" version="opset6">
			<data eps="9.9999997473787516e-06" normalize_variance="true" eps_mode="INSIDE_SQRT"/>
			<rt_info>
				<attribute name="fused_names" version="0" value="485, Concat_914, Concat_959, MVN_895, Multiply_942, Reshape_915, Reshape_960"/>
			</rt_info>
			<input>
				<port id="0" precision="FP32">
					<dim>1</dim>
					<dim>32</dim>
					<dim>131072</dim>
				</port>
				<port id="1" precision="I64">
					<dim>1</dim>
				</port>
			</input>
			<output>
				<port id="2" precision="FP32" names="485">
					<dim>1</dim>
					<dim>32</dim>
					<dim>131072</dim>
				</port>
			</output>
		</layer>
		<layer id="73" name="487" type="Reshape" version="opset1">
			<data special_zero="true"/>
			<rt_info>
				<attribute name="fused_names" version="0" value="487"/>
			</rt_info>
			<input>
				<port id="0" precision="FP32">
					<dim>1</dim>
					<dim>32</dim>
					<dim>131072</dim>
				</port>
				<port id="1" precision="I64">
					<dim>4</dim>
				</port>
			</input>
			<output>
				<port id="2" precision="FP32" names="487">
					<dim>1</dim>
					<dim>64</dim>
					<dim>256</dim>
					<dim>256</dim>
				</port>
			</output>
		</layer>
		<layer id="74" name="Constant_30376_compressed" type="Const" version="opset1">
			<data element_type="f16" shape="1, 64, 1, 1" offset="148896" size="128"/>
			<output>
				<port id="0" precision="FP16">
					<dim>1</dim>
					<dim>64</dim>
					<dim>1</dim>
					<dim>1</dim>
				</port>
			</output>
		</layer>
		<layer id="75" name="Constant_30376" type="Convert" version="opset1">
			<data destination_type="f32"/>
			<rt_info>
				<attribute name="decompression" version="0"/>
			</rt_info>
			<input>
				<port id="0" precision="FP16">
					<dim>1</dim>
					<dim>64</dim>
					<dim>1</dim>
					<dim>1</dim>
				</port>
			</input>
			<output>
				<port id="1" precision="FP32">
					<dim>1</dim>
					<dim>64</dim>
					<dim>1</dim>
					<dim>1</dim>
				</port>
			</output>
		</layer>
		<layer id="76" name="489" type="Multiply" version="opset1">
			<data auto_broadcast="numpy"/>
			<rt_info>
				<attribute name="fused_names" version="0" value="488, 489"/>
			</rt_info>
			<input>
				<port id="0" precision="FP32">
					<dim>1</dim>
					<dim>64</dim>
					<dim>256</dim>
					<dim>256</dim>
				</port>
				<port id="1" precision="FP32">
					<dim>1</dim>
					<dim>64</dim>
					<dim>1</dim>
					<dim>1</dim>
				</port>
			</input>
			<output>
				<port id="2" precision="FP32" names="489">
					<dim>1</dim>
					<dim>64</dim>
					<dim>256</dim>
					<dim>256</dim>
				</port>
			</output>
		</layer>
		<layer id="77" name="Constant_30377_compressed" type="Const" version="opset1">
			<data element_type="f16" shape="1, 64, 1, 1" offset="149024" size="128"/>
			<output>
				<port id="0" precision="FP16">
					<dim>1</dim>
					<dim>64</dim>
					<dim>1</dim>
					<dim>1</dim>
				</port>
			</output>
		</layer>
		<layer id="78" name="Constant_30377" type="Convert" version="opset1">
			<data destination_type="f32"/>
			<rt_info>
				<attribute name="decompression" version="0"/>
			</rt_info>
			<input>
				<port id="0" precision="FP16">
					<dim>1</dim>
					<dim>64</dim>
					<dim>1</dim>
					<dim>1</dim>
				</port>
			</input>
			<output>
				<port id="1" precision="FP32">
					<dim>1</dim>
					<dim>64</dim>
					<dim>1</dim>
					<dim>1</dim>
				</port>
			</output>
		</layer>
		<layer id="79" name="491" type="Add" version="opset1">
			<data auto_broadcast="numpy"/>
			<rt_info>
				<attribute name="fused_names" version="0" value="490, 491"/>
			</rt_info>
			<input>
				<port id="0" precision="FP32">
					<dim>1</dim>
					<dim>64</dim>
					<dim>256</dim>
					<dim>256</dim>
				</port>
				<port id="1" precision="FP32">
					<dim>1</dim>
					<dim>64</dim>
					<dim>1</dim>
					<dim>1</dim>
				</port>
			</input>
			<output>
				<port id="2" precision="FP32" names="491">
					<dim>1</dim>
					<dim>64</dim>
					<dim>256</dim>
					<dim>256</dim>
				</port>
			</output>
		</layer>
		<layer id="80" name="492" type="ReLU" version="opset1">
			<rt_info>
				<attribute name="fused_names" version="0" value="492"/>
			</rt_info>
			<input>
				<port id="0" precision="FP32">
					<dim>1</dim>
					<dim>64</dim>
					<dim>256</dim>
					<dim>256</dim>
				</port>
			</input>
			<output>
				<port id="1" precision="FP32" names="492">
					<dim>1</dim>
					<dim>64</dim>
					<dim>256</dim>
					<dim>256</dim>
				</port>
			</output>
		</layer>
		<layer id="81" name="conv2.downsample.2.weight_compressed" type="Const" version="opset1">
			<data element_type="f16" shape="128, 64, 1, 1" offset="149152" size="16384"/>
			<output>
				<port id="0" precision="FP16">
					<dim>128</dim>
					<dim>64</dim>
					<dim>1</dim>
					<dim>1</dim>
				</port>
			</output>
		</layer>
		<layer id="82" name="conv2.downsample.2.weight" type="Convert" version="opset1">
			<data destination_type="f32"/>
			<rt_info>
				<attribute name="decompression" version="0"/>
				<attribute name="fused_names" version="0" value="conv2.downsample.2.weight"/>
			</rt_info>
			<input>
				<port id="0" precision="FP16">
					<dim>128</dim>
					<dim>64</dim>
					<dim>1</dim>
					<dim>1</dim>
				</port>
			</input>
			<output>
				<port id="1" precision="FP32" names="conv2.downsample.2.weight">
					<dim>128</dim>
					<dim>64</dim>
					<dim>1</dim>
					<dim>1</dim>
				</port>
			</output>
		</layer>
		<layer id="83" name="493" type="Convolution" version="opset1">
			<data strides="1, 1" dilations="1, 1" pads_begin="0, 0" pads_end="0, 0" auto_pad="explicit"/>
			<rt_info>
				<attribute name="fused_names" version="0" value="493"/>
			</rt_info>
			<input>
				<port id="0" precision="FP32">
					<dim>1</dim>
					<dim>64</dim>
					<dim>256</dim>
					<dim>256</dim>
				</port>
				<port id="1" precision="FP32">
					<dim>128</dim>
					<dim>64</dim>
					<dim>1</dim>
					<dim>1</dim>
				</port>
			</input>
			<output>
				<port id="2" precision="FP32" names="493">
					<dim>1</dim>
					<dim>128</dim>
					<dim>256</dim>
					<dim>256</dim>
				</port>
			</output>
		</layer>
		<layer id="84" name="494" type="Add" version="opset1">
			<data auto_broadcast="numpy"/>
			<rt_info>
				<attribute name="fused_names" version="0" value="494, 496"/>
			</rt_info>
			<input>
				<port id="0" precision="FP32">
					<dim>1</dim>
					<dim>128</dim>
					<dim>256</dim>
					<dim>256</dim>
				</port>
				<port id="1" precision="FP32">
					<dim>1</dim>
					<dim>128</dim>
					<dim>256</dim>
					<dim>256</dim>
				</port>
			</input>
			<output>
				<port id="2" precision="FP32" names="494,496">
					<dim>1</dim>
					<dim>128</dim>
					<dim>256</dim>
					<dim>256</dim>
				</port>
			</output>
		</layer>
		<layer id="85" name="497" type="AvgPool" version="opset1">
			<data kernel="2, 2" strides="2, 2" pads_begin="0, 0" pads_end="0, 0" exclude-pad="true" auto_pad="explicit" rounding_type="floor"/>
			<rt_info>
				<attribute name="fused_names" version="0" value="497"/>
			</rt_info>
			<input>
				<port id="0" precision="FP32">
					<dim>1</dim>
					<dim>128</dim>
					<dim>256</dim>
					<dim>256</dim>
				</port>
			</input>
			<output>
				<port id="1" precision="FP32" names="497">
					<dim>1</dim>
					<dim>128</dim>
					<dim>128</dim>
					<dim>128</dim>
				</port>
			</output>
		</layer>
		<layer id="88" name="498" type="Const" version="opset1">
			<data element_type="i64" shape="3" offset="18944" size="24"/>
			<rt_info>
				<attribute name="fused_names" version="0" value="498"/>
			</rt_info>
			<output>
				<port id="0" precision="I64" names="498">
					<dim>3</dim>
				</port>
			</output>
		</layer>
		<layer id="89" name="499" type="Reshape" version="opset1">
			<data special_zero="true"/>
			<rt_info>
				<attribute name="fused_names" version="0" value="499"/>
			</rt_info>
			<input>
				<port id="0" precision="FP32">
					<dim>1</dim>
					<dim>128</dim>
					<dim>128</dim>
					<dim>128</dim>
				</port>
				<port id="1" precision="I64">
					<dim>3</dim>
				</port>
			</input>
			<output>
				<port id="2" precision="FP32" names="499">
					<dim>1</dim>
					<dim>32</dim>
					<dim>65536</dim>
				</port>
			</output>
		</layer>
		<layer id="90" name="Constant_1020" type="Const" version="opset1">
			<data element_type="i64" shape="1" offset="18968" size="8"/>
			<rt_info>
				<attribute name="fused_names" version="0" value="Constant_1020"/>
			</rt_info>
			<output>
				<port id="0" precision="I64">
					<dim>1</dim>
				</port>
			</output>
		</layer>
		<layer id="91" name="MVN_1021" type="MVN" version="opset6">
			<data eps="9.9999997473787516e-06" normalize_variance="true" eps_mode="INSIDE_SQRT"/>
			<rt_info>
				<attribute name="fused_names" version="0" value="502, Concat_1040, Concat_1085, MVN_1021, Multiply_1068, Reshape_1041, Reshape_1086"/>
			</rt_info>
			<input>
				<port id="0" precision="FP32">
					<dim>1</dim>
					<dim>32</dim>
					<dim>65536</dim>
				</port>
				<port id="1" precision="I64">
					<dim>1</dim>
				</port>
			</input>
			<output>
				<port id="2" precision="FP32" names="502">
					<dim>1</dim>
					<dim>32</dim>
					<dim>65536</dim>
				</port>
			</output>
		</layer>
		<layer id="92" name="503" type="ShapeOf" version="opset3">
			<data output_type="i64"/>
			<rt_info>
				<attribute name="fused_names" version="0" value="503"/>
			</rt_info>
			<input>
				<port id="0" precision="FP32">
					<dim>1</dim>
					<dim>128</dim>
					<dim>128</dim>
					<dim>128</dim>
				</port>
			</input>
			<output>
				<port id="1" precision="I64" names="503">
					<dim>4</dim>
				</port>
			</output>
		</layer>
		<layer id="93" name="504" type="Reshape" version="opset1">
			<data special_zero="true"/>
			<rt_info>
				<attribute name="fused_names" version="0" value="504"/>
			</rt_info>
			<input>
				<port id="0" precision="FP32">
					<dim>1</dim>
					<dim>32</dim>
					<dim>65536</dim>
				</port>
				<port id="1" precision="I64">
					<dim>4</dim>
				</port>
			</input>
			<output>
				<port id="2" precision="FP32" names="504">
					<dim>1</dim>
					<dim>128</dim>
					<dim>128</dim>
					<dim>128</dim>
				</port>
			</output>
		</layer>
		<layer id="94" name="Constant_30378_compressed" type="Const" version="opset1">
			<data element_type="f16" shape="1, 128, 1, 1" offset="165536" size="256"/>
			<output>
				<port id="0" precision="FP16">
					<dim>1</dim>
					<dim>128</dim>
					<dim>1</dim>
					<dim>1</dim>
				</port>
			</output>
		</layer>
		<layer id="95" name="Constant_30378" type="Convert" version="opset1">
			<data destination_type="f32"/>
			<rt_info>
				<attribute name="decompression" version="0"/>
			</rt_info>
			<input>
				<port id="0" precision="FP16">
					<dim>1</dim>
					<dim>128</dim>
					<dim>1</dim>
					<dim>1</dim>
				</port>
			</input>
			<output>
				<port id="1" precision="FP32">
					<dim>1</dim>
					<dim>128</dim>
					<dim>1</dim>
					<dim>1</dim>
				</port>
			</output>
		</layer>
		<layer id="96" name="506" type="Multiply" version="opset1">
			<data auto_broadcast="numpy"/>
			<rt_info>
				<attribute name="fused_names" version="0" value="505, 506"/>
			</rt_info>
			<input>
				<port id="0" precision="FP32">
					<dim>1</dim>
					<dim>128</dim>
					<dim>128</dim>
					<dim>128</dim>
				</port>
				<port id="1" precision="FP32">
					<dim>1</dim>
					<dim>128</dim>
					<dim>1</dim>
					<dim>1</dim>
				</port>
			</input>
			<output>
				<port id="2" precision="FP32" names="506">
					<dim>1</dim>
					<dim>128</dim>
					<dim>128</dim>
					<dim>128</dim>
				</port>
			</output>
		</layer>
		<layer id="97" name="Constant_30379_compressed" type="Const" version="opset1">
			<data element_type="f16" shape="1, 128, 1, 1" offset="165792" size="256"/>
			<output>
				<port id="0" precision="FP16">
					<dim>1</dim>
					<dim>128</dim>
					<dim>1</dim>
					<dim>1</dim>
				</port>
			</output>
		</layer>
		<layer id="98" name="Constant_30379" type="Convert" version="opset1">
			<data destination_type="f32"/>
			<rt_info>
				<attribute name="decompression" version="0"/>
			</rt_info>
			<input>
				<port id="0" precision="FP16">
					<dim>1</dim>
					<dim>128</dim>
					<dim>1</dim>
					<dim>1</dim>
				</port>
			</input>
			<output>
				<port id="1" precision="FP32">
					<dim>1</dim>
					<dim>128</dim>
					<dim>1</dim>
					<dim>1</dim>
				</port>
			</output>
		</layer>
		<layer id="99" name="508" type="Add" version="opset1">
			<data auto_broadcast="numpy"/>
			<rt_info>
				<attribute name="fused_names" version="0" value="507, 508"/>
			</rt_info>
			<input>
				<port id="0" precision="FP32">
					<dim>1</dim>
					<dim>128</dim>
					<dim>128</dim>
					<dim>128</dim>
				</port>
				<port id="1" precision="FP32">
					<dim>1</dim>
					<dim>128</dim>
					<dim>1</dim>
					<dim>1</dim>
				</port>
			</input>
			<output>
				<port id="2" precision="FP32" names="508">
					<dim>1</dim>
					<dim>128</dim>
					<dim>128</dim>
					<dim>128</dim>
				</port>
			</output>
		</layer>
		<layer id="100" name="509" type="ReLU" version="opset1">
			<rt_info>
				<attribute name="fused_names" version="0" value="509"/>
			</rt_info>
			<input>
				<port id="0" precision="FP32">
					<dim>1</dim>
					<dim>128</dim>
					<dim>128</dim>
					<dim>128</dim>
				</port>
			</input>
			<output>
				<port id="1" precision="FP32" names="509">
					<dim>1</dim>
					<dim>128</dim>
					<dim>128</dim>
					<dim>128</dim>
				</port>
			</output>
		</layer>
		<layer id="101" name="conv3.conv1.weight_compressed" type="Const" version="opset1">
			<data element_type="f16" shape="64, 128, 3, 3" offset="166048" size="147456"/>
			<output>
				<port id="0" precision="FP16">
					<dim>64</dim>
					<dim>128</dim>
					<dim>3</dim>
					<dim>3</dim>
				</port>
			</output>
		</layer>
		<layer id="102" name="conv3.conv1.weight" type="Convert" version="opset1">
			<data destination_type="f32"/>
			<rt_info>
				<attribute name="decompression" version="0"/>
				<attribute name="fused_names" version="0" value="conv3.conv1.weight"/>
			</rt_info>
			<input>
				<port id="0" precision="FP16">
					<dim>64</dim>
					<dim>128</dim>
					<dim>3</dim>
					<dim>3</dim>
				</port>
			</input>
			<output>
				<port id="1" precision="FP32" names="conv3.conv1.weight">
					<dim>64</dim>
					<dim>128</dim>
					<dim>3</dim>
					<dim>3</dim>
				</port>
			</output>
		</layer>
		<layer id="103" name="510" type="Convolution" version="opset1">
			<data strides="1, 1" dilations="1, 1" pads_begin="1, 1" pads_end="1, 1" auto_pad="explicit"/>
			<rt_info>
				<attribute name="fused_names" version="0" value="510"/>
			</rt_info>
			<input>
				<port id="0" precision="FP32">
					<dim>1</dim>
					<dim>128</dim>
					<dim>128</dim>
					<dim>128</dim>
				</port>
				<port id="1" precision="FP32">
					<dim>64</dim>
					<dim>128</dim>
					<dim>3</dim>
					<dim>3</dim>
				</port>
			</input>
			<output>
				<port id="2" precision="FP32" names="510">
					<dim>1</dim>
					<dim>64</dim>
					<dim>128</dim>
					<dim>128</dim>
				</port>
			</output>
		</layer>
		<layer id="104" name="511" type="Const" version="opset1">
			<data element_type="i64" shape="3" offset="18944" size="24"/>
			<rt_info>
				<attribute name="fused_names" version="0" value="511"/>
			</rt_info>
			<output>
				<port id="0" precision="I64" names="511">
					<dim>3</dim>
				</port>
			</output>
		</layer>
		<layer id="105" name="512" type="Reshape" version="opset1">
			<data special_zero="true"/>
			<rt_info>
				<attribute name="fused_names" version="0" value="512"/>
			</rt_info>
			<input>
				<port id="0" precision="FP32">
					<dim>1</dim>
					<dim>64</dim>
					<dim>128</dim>
					<dim>128</dim>
				</port>
				<port id="1" precision="I64">
					<dim>3</dim>
				</port>
			</input>
			<output>
				<port id="2" precision="FP32" names="512">
					<dim>1</dim>
					<dim>32</dim>
					<dim>32768</dim>
				</port>
			</output>
		</layer>
		<layer id="106" name="Constant_1139" type="Const" version="opset1">
			<data element_type="i64" shape="1" offset="18968" size="8"/>
			<rt_info>
				<attribute name="fused_names" version="0" value="Constant_1139"/>
			</rt_info>
			<output>
				<port id="0" precision="I64">
					<dim>1</dim>
				</port>
			</output>
		</layer>
		<layer id="107" name="MVN_1140" type="MVN" version="opset6">
			<data eps="9.9999997473787516e-06" normalize_variance="true" eps_mode="INSIDE_SQRT"/>
			<rt_info>
				<attribute name="fused_names" version="0" value="515, Concat_1159, Concat_1204, MVN_1140, Multiply_1187, Reshape_1160, Reshape_1205"/>
			</rt_info>
			<input>
				<port id="0" precision="FP32">
					<dim>1</dim>
					<dim>32</dim>
					<dim>32768</dim>
				</port>
				<port id="1" precision="I64">
					<dim>1</dim>
				</port>
			</input>
			<output>
				<port id="2" precision="FP32" names="515">
					<dim>1</dim>
					<dim>32</dim>
					<dim>32768</dim>
				</port>
			</output>
		</layer>
		<layer id="108" name="516" type="ShapeOf" version="opset3">
			<data output_type="i64"/>
			<rt_info>
				<attribute name="fused_names" version="0" value="516"/>
			</rt_info>
			<input>
				<port id="0" precision="FP32">
					<dim>1</dim>
					<dim>64</dim>
					<dim>128</dim>
					<dim>128</dim>
				</port>
			</input>
			<output>
				<port id="1" precision="I64" names="516">
					<dim>4</dim>
				</port>
			</output>
		</layer>
		<layer id="109" name="517" type="Reshape" version="opset1">
			<data special_zero="true"/>
			<rt_info>
				<attribute name="fused_names" version="0" value="517"/>
			</rt_info>
			<input>
				<port id="0" precision="FP32">
					<dim>1</dim>
					<dim>32</dim>
					<dim>32768</dim>
				</port>
				<port id="1" precision="I64">
					<dim>4</dim>
				</port>
			</input>
			<output>
				<port id="2" precision="FP32" names="517">
					<dim>1</dim>
					<dim>64</dim>
					<dim>128</dim>
					<dim>128</dim>
				</port>
			</output>
		</layer>
		<layer id="110" name="Constant_30380_compressed" type="Const" version="opset1">
			<data element_type="f16" shape="1, 64, 1, 1" offset="313504" size="128"/>
			<output>
				<port id="0" precision="FP16">
					<dim>1</dim>
					<dim>64</dim>
					<dim>1</dim>
					<dim>1</dim>
				</port>
			</output>
		</layer>
		<layer id="111" name="Constant_30380" type="Convert" version="opset1">
			<data destination_type="f32"/>
			<rt_info>
				<attribute name="decompression" version="0"/>
			</rt_info>
			<input>
				<port id="0" precision="FP16">
					<dim>1</dim>
					<dim>64</dim>
					<dim>1</dim>
					<dim>1</dim>
				</port>
			</input>
			<output>
				<port id="1" precision="FP32">
					<dim>1</dim>
					<dim>64</dim>
					<dim>1</dim>
					<dim>1</dim>
				</port>
			</output>
		</layer>
		<layer id="112" name="519" type="Multiply" version="opset1">
			<data auto_broadcast="numpy"/>
			<rt_info>
				<attribute name="fused_names" version="0" value="518, 519"/>
			</rt_info>
			<input>
				<port id="0" precision="FP32">
					<dim>1</dim>
					<dim>64</dim>
					<dim>128</dim>
					<dim>128</dim>
				</port>
				<port id="1" precision="FP32">
					<dim>1</dim>
					<dim>64</dim>
					<dim>1</dim>
					<dim>1</dim>
				</port>
			</input>
			<output>
				<port id="2" precision="FP32" names="519">
					<dim>1</dim>
					<dim>64</dim>
					<dim>128</dim>
					<dim>128</dim>
				</port>
			</output>
		</layer>
		<layer id="113" name="Constant_30381_compressed" type="Const" version="opset1">
			<data element_type="f16" shape="1, 64, 1, 1" offset="313632" size="128"/>
			<output>
				<port id="0" precision="FP16">
					<dim>1</dim>
					<dim>64</dim>
					<dim>1</dim>
					<dim>1</dim>
				</port>
			</output>
		</layer>
		<layer id="114" name="Constant_30381" type="Convert" version="opset1">
			<data destination_type="f32"/>
			<rt_info>
				<attribute name="decompression" version="0"/>
			</rt_info>
			<input>
				<port id="0" precision="FP16">
					<dim>1</dim>
					<dim>64</dim>
					<dim>1</dim>
					<dim>1</dim>
				</port>
			</input>
			<output>
				<port id="1" precision="FP32">
					<dim>1</dim>
					<dim>64</dim>
					<dim>1</dim>
					<dim>1</dim>
				</port>
			</output>
		</layer>
		<layer id="115" name="521" type="Add" version="opset1">
			<data auto_broadcast="numpy"/>
			<rt_info>
				<attribute name="fused_names" version="0" value="520, 521"/>
			</rt_info>
			<input>
				<port id="0" precision="FP32">
					<dim>1</dim>
					<dim>64</dim>
					<dim>128</dim>
					<dim>128</dim>
				</port>
				<port id="1" precision="FP32">
					<dim>1</dim>
					<dim>64</dim>
					<dim>1</dim>
					<dim>1</dim>
				</port>
			</input>
			<output>
				<port id="2" precision="FP32" names="521">
					<dim>1</dim>
					<dim>64</dim>
					<dim>128</dim>
					<dim>128</dim>
				</port>
			</output>
		</layer>
		<layer id="116" name="522" type="ReLU" version="opset1">
			<rt_info>
				<attribute name="fused_names" version="0" value="522"/>
			</rt_info>
			<input>
				<port id="0" precision="FP32">
					<dim>1</dim>
					<dim>64</dim>
					<dim>128</dim>
					<dim>128</dim>
				</port>
			</input>
			<output>
				<port id="1" precision="FP32" names="522">
					<dim>1</dim>
					<dim>64</dim>
					<dim>128</dim>
					<dim>128</dim>
				</port>
			</output>
		</layer>
		<layer id="117" name="conv3.conv2.weight_compressed" type="Const" version="opset1">
			<data element_type="f16" shape="32, 64, 3, 3" offset="313760" size="36864"/>
			<output>
				<port id="0" precision="FP16">
					<dim>32</dim>
					<dim>64</dim>
					<dim>3</dim>
					<dim>3</dim>
				</port>
			</output>
		</layer>
		<layer id="118" name="conv3.conv2.weight" type="Convert" version="opset1">
			<data destination_type="f32"/>
			<rt_info>
				<attribute name="decompression" version="0"/>
				<attribute name="fused_names" version="0" value="conv3.conv2.weight"/>
			</rt_info>
			<input>
				<port id="0" precision="FP16">
					<dim>32</dim>
					<dim>64</dim>
					<dim>3</dim>
					<dim>3</dim>
				</port>
			</input>
			<output>
				<port id="1" precision="FP32" names="conv3.conv2.weight">
					<dim>32</dim>
					<dim>64</dim>
					<dim>3</dim>
					<dim>3</dim>
				</port>
			</output>
		</layer>
		<layer id="119" name="523" type="Convolution" version="opset1">
			<data strides="1, 1" dilations="1, 1" pads_begin="1, 1" pads_end="1, 1" auto_pad="explicit"/>
			<rt_info>
				<attribute name="fused_names" version="0" value="523"/>
			</rt_info>
			<input>
				<port id="0" precision="FP32">
					<dim>1</dim>
					<dim>64</dim>
					<dim>128</dim>
					<dim>128</dim>
				</port>
				<port id="1" precision="FP32">
					<dim>32</dim>
					<dim>64</dim>
					<dim>3</dim>
					<dim>3</dim>
				</port>
			</input>
			<output>
				<port id="2" precision="FP32" names="523">
					<dim>1</dim>
					<dim>32</dim>
					<dim>128</dim>
					<dim>128</dim>
				</port>
			</output>
		</layer>
		<layer id="120" name="524" type="Const" version="opset1">
			<data element_type="i64" shape="3" offset="18944" size="24"/>
			<rt_info>
				<attribute name="fused_names" version="0" value="524"/>
			</rt_info>
			<output>
				<port id="0" precision="I64" names="524">
					<dim>3</dim>
				</port>
			</output>
		</layer>
		<layer id="121" name="525" type="Reshape" version="opset1">
			<data special_zero="true"/>
			<rt_info>
				<attribute name="fused_names" version="0" value="525"/>
			</rt_info>
			<input>
				<port id="0" precision="FP32">
					<dim>1</dim>
					<dim>32</dim>
					<dim>128</dim>
					<dim>128</dim>
				</port>
				<port id="1" precision="I64">
					<dim>3</dim>
				</port>
			</input>
			<output>
				<port id="2" precision="FP32" names="525">
					<dim>1</dim>
					<dim>32</dim>
					<dim>16384</dim>
				</port>
			</output>
		</layer>
		<layer id="122" name="Constant_1258" type="Const" version="opset1">
			<data element_type="i64" shape="1" offset="18968" size="8"/>
			<rt_info>
				<attribute name="fused_names" version="0" value="Constant_1258"/>
			</rt_info>
			<output>
				<port id="0" precision="I64">
					<dim>1</dim>
				</port>
			</output>
		</layer>
		<layer id="123" name="MVN_1259" type="MVN" version="opset6">
			<data eps="9.9999997473787516e-06" normalize_variance="true" eps_mode="INSIDE_SQRT"/>
			<rt_info>
				<attribute name="fused_names" version="0" value="528, Concat_1278, Concat_1323, MVN_1259, Multiply_1306, Reshape_1279, Reshape_1324"/>
			</rt_info>
			<input>
				<port id="0" precision="FP32">
					<dim>1</dim>
					<dim>32</dim>
					<dim>16384</dim>
				</port>
				<port id="1" precision="I64">
					<dim>1</dim>
				</port>
			</input>
			<output>
				<port id="2" precision="FP32" names="528">
					<dim>1</dim>
					<dim>32</dim>
					<dim>16384</dim>
				</port>
			</output>
		</layer>
		<layer id="124" name="529" type="ShapeOf" version="opset3">
			<data output_type="i64"/>
			<rt_info>
				<attribute name="fused_names" version="0" value="529"/>
			</rt_info>
			<input>
				<port id="0" precision="FP32">
					<dim>1</dim>
					<dim>32</dim>
					<dim>128</dim>
					<dim>128</dim>
				</port>
			</input>
			<output>
				<port id="1" precision="I64" names="529">
					<dim>4</dim>
				</port>
			</output>
		</layer>
		<layer id="125" name="530" type="Reshape" version="opset1">
			<data special_zero="true"/>
			<rt_info>
				<attribute name="fused_names" version="0" value="530"/>
			</rt_info>
			<input>
				<port id="0" precision="FP32">
					<dim>1</dim>
					<dim>32</dim>
					<dim>16384</dim>
				</port>
				<port id="1" precision="I64">
					<dim>4</dim>
				</port>
			</input>
			<output>
				<port id="2" precision="FP32" names="530">
					<dim>1</dim>
					<dim>32</dim>
					<dim>128</dim>
					<dim>128</dim>
				</port>
			</output>
		</layer>
		<layer id="126" name="Constant_30382_compressed" type="Const" version="opset1">
			<data element_type="f16" shape="1, 32, 1, 1" offset="350624" size="64"/>
			<output>
				<port id="0" precision="FP16">
					<dim>1</dim>
					<dim>32</dim>
					<dim>1</dim>
					<dim>1</dim>
				</port>
			</output>
		</layer>
		<layer id="127" name="Constant_30382" type="Convert" version="opset1">
			<data destination_type="f32"/>
			<rt_info>
				<attribute name="decompression" version="0"/>
			</rt_info>
			<input>
				<port id="0" precision="FP16">
					<dim>1</dim>
					<dim>32</dim>
					<dim>1</dim>
					<dim>1</dim>
				</port>
			</input>
			<output>
				<port id="1" precision="FP32">
					<dim>1</dim>
					<dim>32</dim>
					<dim>1</dim>
					<dim>1</dim>
				</port>
			</output>
		</layer>
		<layer id="128" name="532" type="Multiply" version="opset1">
			<data auto_broadcast="numpy"/>
			<rt_info>
				<attribute name="fused_names" version="0" value="531, 532"/>
			</rt_info>
			<input>
				<port id="0" precision="FP32">
					<dim>1</dim>
					<dim>32</dim>
					<dim>128</dim>
					<dim>128</dim>
				</port>
				<port id="1" precision="FP32">
					<dim>1</dim>
					<dim>32</dim>
					<dim>1</dim>
					<dim>1</dim>
				</port>
			</input>
			<output>
				<port id="2" precision="FP32" names="532">
					<dim>1</dim>
					<dim>32</dim>
					<dim>128</dim>
					<dim>128</dim>
				</port>
			</output>
		</layer>
		<layer id="129" name="Constant_30383_compressed" type="Const" version="opset1">
			<data element_type="f16" shape="1, 32, 1, 1" offset="350688" size="64"/>
			<output>
				<port id="0" precision="FP16">
					<dim>1</dim>
					<dim>32</dim>
					<dim>1</dim>
					<dim>1</dim>
				</port>
			</output>
		</layer>
		<layer id="130" name="Constant_30383" type="Convert" version="opset1">
			<data destination_type="f32"/>
			<rt_info>
				<attribute name="decompression" version="0"/>
			</rt_info>
			<input>
				<port id="0" precision="FP16">
					<dim>1</dim>
					<dim>32</dim>
					<dim>1</dim>
					<dim>1</dim>
				</port>
			</input>
			<output>
				<port id="1" precision="FP32">
					<dim>1</dim>
					<dim>32</dim>
					<dim>1</dim>
					<dim>1</dim>
				</port>
			</output>
		</layer>
		<layer id="131" name="534" type="Add" version="opset1">
			<data auto_broadcast="numpy"/>
			<rt_info>
				<attribute name="fused_names" version="0" value="533, 534"/>
			</rt_info>
			<input>
				<port id="0" precision="FP32">
					<dim>1</dim>
					<dim>32</dim>
					<dim>128</dim>
					<dim>128</dim>
				</port>
				<port id="1" precision="FP32">
					<dim>1</dim>
					<dim>32</dim>
					<dim>1</dim>
					<dim>1</dim>
				</port>
			</input>
			<output>
				<port id="2" precision="FP32" names="534">
					<dim>1</dim>
					<dim>32</dim>
					<dim>128</dim>
					<dim>128</dim>
				</port>
			</output>
		</layer>
		<layer id="132" name="535" type="ReLU" version="opset1">
			<rt_info>
				<attribute name="fused_names" version="0" value="535"/>
			</rt_info>
			<input>
				<port id="0" precision="FP32">
					<dim>1</dim>
					<dim>32</dim>
					<dim>128</dim>
					<dim>128</dim>
				</port>
			</input>
			<output>
				<port id="1" precision="FP32" names="535">
					<dim>1</dim>
					<dim>32</dim>
					<dim>128</dim>
					<dim>128</dim>
				</port>
			</output>
		</layer>
		<layer id="133" name="conv3.conv3.weight_compressed" type="Const" version="opset1">
			<data element_type="f16" shape="32, 32, 3, 3" offset="350752" size="18432"/>
			<output>
				<port id="0" precision="FP16">
					<dim>32</dim>
					<dim>32</dim>
					<dim>3</dim>
					<dim>3</dim>
				</port>
			</output>
		</layer>
		<layer id="134" name="conv3.conv3.weight" type="Convert" version="opset1">
			<data destination_type="f32"/>
			<rt_info>
				<attribute name="decompression" version="0"/>
				<attribute name="fused_names" version="0" value="conv3.conv3.weight"/>
			</rt_info>
			<input>
				<port id="0" precision="FP16">
					<dim>32</dim>
					<dim>32</dim>
					<dim>3</dim>
					<dim>3</dim>
				</port>
			</input>
			<output>
				<port id="1" precision="FP32" names="conv3.conv3.weight">
					<dim>32</dim>
					<dim>32</dim>
					<dim>3</dim>
					<dim>3</dim>
				</port>
			</output>
		</layer>
		<layer id="135" name="536" type="Convolution" version="opset1">
			<data strides="1, 1" dilations="1, 1" pads_begin="1, 1" pads_end="1, 1" auto_pad="explicit"/>
			<rt_info>
				<attribute name="fused_names" version="0" value="536"/>
			</rt_info>
			<input>
				<port id="0" precision="FP32">
					<dim>1</dim>
					<dim>32</dim>
					<dim>128</dim>
					<dim>128</dim>
				</port>
				<port id="1" precision="FP32">
					<dim>32</dim>
					<dim>32</dim>
					<dim>3</dim>
					<dim>3</dim>
				</port>
			</input>
			<output>
				<port id="2" precision="FP32" names="536">
					<dim>1</dim>
					<dim>32</dim>
					<dim>128</dim>
					<dim>128</dim>
				</port>
			</output>
		</layer>
		<layer id="136" name="537" type="Concat" version="opset1">
			<data axis="1"/>
			<rt_info>
				<attribute name="fused_names" version="0" value="537"/>
			</rt_info>
			<input>
				<port id="0" precision="FP32">
					<dim>1</dim>
					<dim>64</dim>
					<dim>128</dim>
					<dim>128</dim>
				</port>
				<port id="1" precision="FP32">
					<dim>1</dim>
					<dim>32</dim>
					<dim>128</dim>
					<dim>128</dim>
				</port>
				<port id="2" precision="FP32">
					<dim>1</dim>
					<dim>32</dim>
					<dim>128</dim>
					<dim>128</dim>
				</port>
			</input>
			<output>
				<port id="3" precision="FP32" names="537">
					<dim>1</dim>
					<dim>128</dim>
					<dim>128</dim>
					<dim>128</dim>
				</port>
			</output>
		</layer>
		<layer id="137" name="538" type="Add" version="opset1">
			<data auto_broadcast="numpy"/>
			<rt_info>
				<attribute name="fused_names" version="0" value="538"/>
			</rt_info>
			<input>
				<port id="0" precision="FP32">
					<dim>1</dim>
					<dim>128</dim>
					<dim>128</dim>
					<dim>128</dim>
				</port>
				<port id="1" precision="FP32">
					<dim>1</dim>
					<dim>128</dim>
					<dim>128</dim>
					<dim>128</dim>
				</port>
			</input>
			<output>
				<port id="2" precision="FP32" names="538">
					<dim>1</dim>
					<dim>128</dim>
					<dim>128</dim>
					<dim>128</dim>
				</port>
			</output>
		</layer>
		<layer id="138" name="539" type="Const" version="opset1">
			<data element_type="i64" shape="3" offset="18944" size="24"/>
			<rt_info>
				<attribute name="fused_names" version="0" value="539"/>
			</rt_info>
			<output>
				<port id="0" precision="I64" names="539">
					<dim>3</dim>
				</port>
			</output>
		</layer>
		<layer id="139" name="540" type="Reshape" version="opset1">
			<data special_zero="true"/>
			<rt_info>
				<attribute name="fused_names" version="0" value="540"/>
			</rt_info>
			<input>
				<port id="0" precision="FP32">
					<dim>1</dim>
					<dim>128</dim>
					<dim>128</dim>
					<dim>128</dim>
				</port>
				<port id="1" precision="I64">
					<dim>3</dim>
				</port>
			</input>
			<output>
				<port id="2" precision="FP32" names="540">
					<dim>1</dim>
					<dim>32</dim>
					<dim>65536</dim>
				</port>
			</output>
		</layer>
		<layer id="140" name="Constant_1379" type="Const" version="opset1">
			<data element_type="i64" shape="1" offset="18968" size="8"/>
			<rt_info>
				<attribute name="fused_names" version="0" value="Constant_1379"/>
			</rt_info>
			<output>
				<port id="0" precision="I64">
					<dim>1</dim>
				</port>
			</output>
		</layer>
		<layer id="141" name="MVN_1380" type="MVN" version="opset6">
			<data eps="9.9999997473787516e-06" normalize_variance="true" eps_mode="INSIDE_SQRT"/>
			<rt_info>
				<attribute name="fused_names" version="0" value="543, Concat_1399, Concat_1444, MVN_1380, Multiply_1427, Reshape_1400, Reshape_1445"/>
			</rt_info>
			<input>
				<port id="0" precision="FP32">
					<dim>1</dim>
					<dim>32</dim>
					<dim>65536</dim>
				</port>
				<port id="1" precision="I64">
					<dim>1</dim>
				</port>
			</input>
			<output>
				<port id="2" precision="FP32" names="543">
					<dim>1</dim>
					<dim>32</dim>
					<dim>65536</dim>
				</port>
			</output>
		</layer>
		<layer id="142" name="544" type="ShapeOf" version="opset3">
			<data output_type="i64"/>
			<rt_info>
				<attribute name="fused_names" version="0" value="544, 584"/>
			</rt_info>
			<input>
				<port id="0" precision="FP32">
					<dim>1</dim>
					<dim>128</dim>
					<dim>128</dim>
					<dim>128</dim>
				</port>
			</input>
			<output>
				<port id="1" precision="I64" names="544,584">
					<dim>4</dim>
				</port>
			</output>
		</layer>
		<layer id="143" name="545" type="Reshape" version="opset1">
			<data special_zero="true"/>
			<rt_info>
				<attribute name="fused_names" version="0" value="545"/>
			</rt_info>
			<input>
				<port id="0" precision="FP32">
					<dim>1</dim>
					<dim>32</dim>
					<dim>65536</dim>
				</port>
				<port id="1" precision="I64">
					<dim>4</dim>
				</port>
			</input>
			<output>
				<port id="2" precision="FP32" names="545">
					<dim>1</dim>
					<dim>128</dim>
					<dim>128</dim>
					<dim>128</dim>
				</port>
			</output>
		</layer>
		<layer id="144" name="Constant_30384_compressed" type="Const" version="opset1">
			<data element_type="f16" shape="1, 128, 1, 1" offset="369184" size="256"/>
			<output>
				<port id="0" precision="FP16">
					<dim>1</dim>
					<dim>128</dim>
					<dim>1</dim>
					<dim>1</dim>
				</port>
			</output>
		</layer>
		<layer id="145" name="Constant_30384" type="Convert" version="opset1">
			<data destination_type="f32"/>
			<rt_info>
				<attribute name="decompression" version="0"/>
			</rt_info>
			<input>
				<port id="0" precision="FP16">
					<dim>1</dim>
					<dim>128</dim>
					<dim>1</dim>
					<dim>1</dim>
				</port>
			</input>
			<output>
				<port id="1" precision="FP32">
					<dim>1</dim>
					<dim>128</dim>
					<dim>1</dim>
					<dim>1</dim>
				</port>
			</output>
		</layer>
		<layer id="146" name="547" type="Multiply" version="opset1">
			<data auto_broadcast="numpy"/>
			<rt_info>
				<attribute name="fused_names" version="0" value="546, 547"/>
			</rt_info>
			<input>
				<port id="0" precision="FP32">
					<dim>1</dim>
					<dim>128</dim>
					<dim>128</dim>
					<dim>128</dim>
				</port>
				<port id="1" precision="FP32">
					<dim>1</dim>
					<dim>128</dim>
					<dim>1</dim>
					<dim>1</dim>
				</port>
			</input>
			<output>
				<port id="2" precision="FP32" names="547">
					<dim>1</dim>
					<dim>128</dim>
					<dim>128</dim>
					<dim>128</dim>
				</port>
			</output>
		</layer>
		<layer id="147" name="Constant_30385_compressed" type="Const" version="opset1">
			<data element_type="f16" shape="1, 128, 1, 1" offset="369440" size="256"/>
			<output>
				<port id="0" precision="FP16">
					<dim>1</dim>
					<dim>128</dim>
					<dim>1</dim>
					<dim>1</dim>
				</port>
			</output>
		</layer>
		<layer id="148" name="Constant_30385" type="Convert" version="opset1">
			<data destination_type="f32"/>
			<rt_info>
				<attribute name="decompression" version="0"/>
			</rt_info>
			<input>
				<port id="0" precision="FP16">
					<dim>1</dim>
					<dim>128</dim>
					<dim>1</dim>
					<dim>1</dim>
				</port>
			</input>
			<output>
				<port id="1" precision="FP32">
					<dim>1</dim>
					<dim>128</dim>
					<dim>1</dim>
					<dim>1</dim>
				</port>
			</output>
		</layer>
		<layer id="149" name="549" type="Add" version="opset1">
			<data auto_broadcast="numpy"/>
			<rt_info>
				<attribute name="fused_names" version="0" value="548, 549"/>
			</rt_info>
			<input>
				<port id="0" precision="FP32">
					<dim>1</dim>
					<dim>128</dim>
					<dim>128</dim>
					<dim>128</dim>
				</port>
				<port id="1" precision="FP32">
					<dim>1</dim>
					<dim>128</dim>
					<dim>1</dim>
					<dim>1</dim>
				</port>
			</input>
			<output>
				<port id="2" precision="FP32" names="549">
					<dim>1</dim>
					<dim>128</dim>
					<dim>128</dim>
					<dim>128</dim>
				</port>
			</output>
		</layer>
		<layer id="150" name="550" type="ReLU" version="opset1">
			<rt_info>
				<attribute name="fused_names" version="0" value="550"/>
			</rt_info>
			<input>
				<port id="0" precision="FP32">
					<dim>1</dim>
					<dim>128</dim>
					<dim>128</dim>
					<dim>128</dim>
				</port>
			</input>
			<output>
				<port id="1" precision="FP32" names="550">
					<dim>1</dim>
					<dim>128</dim>
					<dim>128</dim>
					<dim>128</dim>
				</port>
			</output>
		</layer>
		<layer id="151" name="conv4.conv1.weight_compressed" type="Const" version="opset1">
			<data element_type="f16" shape="128, 128, 3, 3" offset="369696" size="294912"/>
			<output>
				<port id="0" precision="FP16">
					<dim>128</dim>
					<dim>128</dim>
					<dim>3</dim>
					<dim>3</dim>
				</port>
			</output>
		</layer>
		<layer id="152" name="conv4.conv1.weight" type="Convert" version="opset1">
			<data destination_type="f32"/>
			<rt_info>
				<attribute name="decompression" version="0"/>
				<attribute name="fused_names" version="0" value="conv4.conv1.weight"/>
			</rt_info>
			<input>
				<port id="0" precision="FP16">
					<dim>128</dim>
					<dim>128</dim>
					<dim>3</dim>
					<dim>3</dim>
				</port>
			</input>
			<output>
				<port id="1" precision="FP32" names="conv4.conv1.weight">
					<dim>128</dim>
					<dim>128</dim>
					<dim>3</dim>
					<dim>3</dim>
				</port>
			</output>
		</layer>
		<layer id="153" name="551" type="Convolution" version="opset1">
			<data strides="1, 1" dilations="1, 1" pads_begin="1, 1" pads_end="1, 1" auto_pad="explicit"/>
			<rt_info>
				<attribute name="fused_names" version="0" value="551"/>
			</rt_info>
			<input>
				<port id="0" precision="FP32">
					<dim>1</dim>
					<dim>128</dim>
					<dim>128</dim>
					<dim>128</dim>
				</port>
				<port id="1" precision="FP32">
					<dim>128</dim>
					<dim>128</dim>
					<dim>3</dim>
					<dim>3</dim>
				</port>
			</input>
			<output>
				<port id="2" precision="FP32" names="551">
					<dim>1</dim>
					<dim>128</dim>
					<dim>128</dim>
					<dim>128</dim>
				</port>
			</output>
		</layer>
		<layer id="154" name="552" type="Const" version="opset1">
			<data element_type="i64" shape="3" offset="18944" size="24"/>
			<rt_info>
				<attribute name="fused_names" version="0" value="552"/>
			</rt_info>
			<output>
				<port id="0" precision="I64" names="552">
					<dim>3</dim>
				</port>
			</output>
		</layer>
		<layer id="155" name="553" type="Reshape" version="opset1">
			<data special_zero="true"/>
			<rt_info>
				<attribute name="fused_names" version="0" value="553"/>
			</rt_info>
			<input>
				<port id="0" precision="FP32">
					<dim>1</dim>
					<dim>128</dim>
					<dim>128</dim>
					<dim>128</dim>
				</port>
				<port id="1" precision="I64">
					<dim>3</dim>
				</port>
			</input>
			<output>
				<port id="2" precision="FP32" names="553">
					<dim>1</dim>
					<dim>32</dim>
					<dim>65536</dim>
				</port>
			</output>
		</layer>
		<layer id="156" name="Constant_1498" type="Const" version="opset1">
			<data element_type="i64" shape="1" offset="18968" size="8"/>
			<rt_info>
				<attribute name="fused_names" version="0" value="Constant_1498"/>
			</rt_info>
			<output>
				<port id="0" precision="I64">
					<dim>1</dim>
				</port>
			</output>
		</layer>
		<layer id="157" name="MVN_1499" type="MVN" version="opset6">
			<data eps="9.9999997473787516e-06" normalize_variance="true" eps_mode="INSIDE_SQRT"/>
			<rt_info>
				<attribute name="fused_names" version="0" value="556, Concat_1518, Concat_1563, MVN_1499, Multiply_1546, Reshape_1519, Reshape_1564"/>
			</rt_info>
			<input>
				<port id="0" precision="FP32">
					<dim>1</dim>
					<dim>32</dim>
					<dim>65536</dim>
				</port>
				<port id="1" precision="I64">
					<dim>1</dim>
				</port>
			</input>
			<output>
				<port id="2" precision="FP32" names="556">
					<dim>1</dim>
					<dim>32</dim>
					<dim>65536</dim>
				</port>
			</output>
		</layer>
		<layer id="158" name="557" type="ShapeOf" version="opset3">
			<data output_type="i64"/>
			<rt_info>
				<attribute name="fused_names" version="0" value="557"/>
			</rt_info>
			<input>
				<port id="0" precision="FP32">
					<dim>1</dim>
					<dim>128</dim>
					<dim>128</dim>
					<dim>128</dim>
				</port>
			</input>
			<output>
				<port id="1" precision="I64" names="557">
					<dim>4</dim>
				</port>
			</output>
		</layer>
		<layer id="159" name="558" type="Reshape" version="opset1">
			<data special_zero="true"/>
			<rt_info>
				<attribute name="fused_names" version="0" value="558"/>
			</rt_info>
			<input>
				<port id="0" precision="FP32">
					<dim>1</dim>
					<dim>32</dim>
					<dim>65536</dim>
				</port>
				<port id="1" precision="I64">
					<dim>4</dim>
				</port>
			</input>
			<output>
				<port id="2" precision="FP32" names="558">
					<dim>1</dim>
					<dim>128</dim>
					<dim>128</dim>
					<dim>128</dim>
				</port>
			</output>
		</layer>
		<layer id="160" name="Constant_30386_compressed" type="Const" version="opset1">
			<data element_type="f16" shape="1, 128, 1, 1" offset="664608" size="256"/>
			<output>
				<port id="0" precision="FP16">
					<dim>1</dim>
					<dim>128</dim>
					<dim>1</dim>
					<dim>1</dim>
				</port>
			</output>
		</layer>
		<layer id="161" name="Constant_30386" type="Convert" version="opset1">
			<data destination_type="f32"/>
			<rt_info>
				<attribute name="decompression" version="0"/>
			</rt_info>
			<input>
				<port id="0" precision="FP16">
					<dim>1</dim>
					<dim>128</dim>
					<dim>1</dim>
					<dim>1</dim>
				</port>
			</input>
			<output>
				<port id="1" precision="FP32">
					<dim>1</dim>
					<dim>128</dim>
					<dim>1</dim>
					<dim>1</dim>
				</port>
			</output>
		</layer>
		<layer id="162" name="560" type="Multiply" version="opset1">
			<data auto_broadcast="numpy"/>
			<rt_info>
				<attribute name="fused_names" version="0" value="559, 560"/>
			</rt_info>
			<input>
				<port id="0" precision="FP32">
					<dim>1</dim>
					<dim>128</dim>
					<dim>128</dim>
					<dim>128</dim>
				</port>
				<port id="1" precision="FP32">
					<dim>1</dim>
					<dim>128</dim>
					<dim>1</dim>
					<dim>1</dim>
				</port>
			</input>
			<output>
				<port id="2" precision="FP32" names="560">
					<dim>1</dim>
					<dim>128</dim>
					<dim>128</dim>
					<dim>128</dim>
				</port>
			</output>
		</layer>
		<layer id="163" name="Constant_30387_compressed" type="Const" version="opset1">
			<data element_type="f16" shape="1, 128, 1, 1" offset="664864" size="256"/>
			<output>
				<port id="0" precision="FP16">
					<dim>1</dim>
					<dim>128</dim>
					<dim>1</dim>
					<dim>1</dim>
				</port>
			</output>
		</layer>
		<layer id="164" name="Constant_30387" type="Convert" version="opset1">
			<data destination_type="f32"/>
			<rt_info>
				<attribute name="decompression" version="0"/>
			</rt_info>
			<input>
				<port id="0" precision="FP16">
					<dim>1</dim>
					<dim>128</dim>
					<dim>1</dim>
					<dim>1</dim>
				</port>
			</input>
			<output>
				<port id="1" precision="FP32">
					<dim>1</dim>
					<dim>128</dim>
					<dim>1</dim>
					<dim>1</dim>
				</port>
			</output>
		</layer>
		<layer id="165" name="562" type="Add" version="opset1">
			<data auto_broadcast="numpy"/>
			<rt_info>
				<attribute name="fused_names" version="0" value="561, 562"/>
			</rt_info>
			<input>
				<port id="0" precision="FP32">
					<dim>1</dim>
					<dim>128</dim>
					<dim>128</dim>
					<dim>128</dim>
				</port>
				<port id="1" precision="FP32">
					<dim>1</dim>
					<dim>128</dim>
					<dim>1</dim>
					<dim>1</dim>
				</port>
			</input>
			<output>
				<port id="2" precision="FP32" names="562">
					<dim>1</dim>
					<dim>128</dim>
					<dim>128</dim>
					<dim>128</dim>
				</port>
			</output>
		</layer>
		<layer id="166" name="563" type="ReLU" version="opset1">
			<rt_info>
				<attribute name="fused_names" version="0" value="563"/>
			</rt_info>
			<input>
				<port id="0" precision="FP32">
					<dim>1</dim>
					<dim>128</dim>
					<dim>128</dim>
					<dim>128</dim>
				</port>
			</input>
			<output>
				<port id="1" precision="FP32" names="563">
					<dim>1</dim>
					<dim>128</dim>
					<dim>128</dim>
					<dim>128</dim>
				</port>
			</output>
		</layer>
		<layer id="167" name="conv4.conv2.weight_compressed" type="Const" version="opset1">
			<data element_type="f16" shape="64, 128, 3, 3" offset="665120" size="147456"/>
			<output>
				<port id="0" precision="FP16">
					<dim>64</dim>
					<dim>128</dim>
					<dim>3</dim>
					<dim>3</dim>
				</port>
			</output>
		</layer>
		<layer id="168" name="conv4.conv2.weight" type="Convert" version="opset1">
			<data destination_type="f32"/>
			<rt_info>
				<attribute name="decompression" version="0"/>
				<attribute name="fused_names" version="0" value="conv4.conv2.weight"/>
			</rt_info>
			<input>
				<port id="0" precision="FP16">
					<dim>64</dim>
					<dim>128</dim>
					<dim>3</dim>
					<dim>3</dim>
				</port>
			</input>
			<output>
				<port id="1" precision="FP32" names="conv4.conv2.weight">
					<dim>64</dim>
					<dim>128</dim>
					<dim>3</dim>
					<dim>3</dim>
				</port>
			</output>
		</layer>
		<layer id="169" name="564" type="Convolution" version="opset1">
			<data strides="1, 1" dilations="1, 1" pads_begin="1, 1" pads_end="1, 1" auto_pad="explicit"/>
			<rt_info>
				<attribute name="fused_names" version="0" value="564"/>
			</rt_info>
			<input>
				<port id="0" precision="FP32">
					<dim>1</dim>
					<dim>128</dim>
					<dim>128</dim>
					<dim>128</dim>
				</port>
				<port id="1" precision="FP32">
					<dim>64</dim>
					<dim>128</dim>
					<dim>3</dim>
					<dim>3</dim>
				</port>
			</input>
			<output>
				<port id="2" precision="FP32" names="564">
					<dim>1</dim>
					<dim>64</dim>
					<dim>128</dim>
					<dim>128</dim>
				</port>
			</output>
		</layer>
		<layer id="170" name="565" type="Const" version="opset1">
			<data element_type="i64" shape="3" offset="18944" size="24"/>
			<rt_info>
				<attribute name="fused_names" version="0" value="565"/>
			</rt_info>
			<output>
				<port id="0" precision="I64" names="565">
					<dim>3</dim>
				</port>
			</output>
		</layer>
		<layer id="171" name="566" type="Reshape" version="opset1">
			<data special_zero="true"/>
			<rt_info>
				<attribute name="fused_names" version="0" value="566"/>
			</rt_info>
			<input>
				<port id="0" precision="FP32">
					<dim>1</dim>
					<dim>64</dim>
					<dim>128</dim>
					<dim>128</dim>
				</port>
				<port id="1" precision="I64">
					<dim>3</dim>
				</port>
			</input>
			<output>
				<port id="2" precision="FP32" names="566">
					<dim>1</dim>
					<dim>32</dim>
					<dim>32768</dim>
				</port>
			</output>
		</layer>
		<layer id="172" name="Constant_1617" type="Const" version="opset1">
			<data element_type="i64" shape="1" offset="18968" size="8"/>
			<rt_info>
				<attribute name="fused_names" version="0" value="Constant_1617"/>
			</rt_info>
			<output>
				<port id="0" precision="I64">
					<dim>1</dim>
				</port>
			</output>
		</layer>
		<layer id="173" name="MVN_1618" type="MVN" version="opset6">
			<data eps="9.9999997473787516e-06" normalize_variance="true" eps_mode="INSIDE_SQRT"/>
			<rt_info>
				<attribute name="fused_names" version="0" value="569, Concat_1637, Concat_1682, MVN_1618, Multiply_1665, Reshape_1638, Reshape_1683"/>
			</rt_info>
			<input>
				<port id="0" precision="FP32">
					<dim>1</dim>
					<dim>32</dim>
					<dim>32768</dim>
				</port>
				<port id="1" precision="I64">
					<dim>1</dim>
				</port>
			</input>
			<output>
				<port id="2" precision="FP32" names="569">
					<dim>1</dim>
					<dim>32</dim>
					<dim>32768</dim>
				</port>
			</output>
		</layer>
		<layer id="174" name="570" type="ShapeOf" version="opset3">
			<data output_type="i64"/>
			<rt_info>
				<attribute name="fused_names" version="0" value="570"/>
			</rt_info>
			<input>
				<port id="0" precision="FP32">
					<dim>1</dim>
					<dim>64</dim>
					<dim>128</dim>
					<dim>128</dim>
				</port>
			</input>
			<output>
				<port id="1" precision="I64" names="570">
					<dim>4</dim>
				</port>
			</output>
		</layer>
		<layer id="175" name="571" type="Reshape" version="opset1">
			<data special_zero="true"/>
			<rt_info>
				<attribute name="fused_names" version="0" value="571"/>
			</rt_info>
			<input>
				<port id="0" precision="FP32">
					<dim>1</dim>
					<dim>32</dim>
					<dim>32768</dim>
				</port>
				<port id="1" precision="I64">
					<dim>4</dim>
				</port>
			</input>
			<output>
				<port id="2" precision="FP32" names="571">
					<dim>1</dim>
					<dim>64</dim>
					<dim>128</dim>
					<dim>128</dim>
				</port>
			</output>
		</layer>
		<layer id="176" name="Constant_30388_compressed" type="Const" version="opset1">
			<data element_type="f16" shape="1, 64, 1, 1" offset="812576" size="128"/>
			<output>
				<port id="0" precision="FP16">
					<dim>1</dim>
					<dim>64</dim>
					<dim>1</dim>
					<dim>1</dim>
				</port>
			</output>
		</layer>
		<layer id="177" name="Constant_30388" type="Convert" version="opset1">
			<data destination_type="f32"/>
			<rt_info>
				<attribute name="decompression" version="0"/>
			</rt_info>
			<input>
				<port id="0" precision="FP16">
					<dim>1</dim>
					<dim>64</dim>
					<dim>1</dim>
					<dim>1</dim>
				</port>
			</input>
			<output>
				<port id="1" precision="FP32">
					<dim>1</dim>
					<dim>64</dim>
					<dim>1</dim>
					<dim>1</dim>
				</port>
			</output>
		</layer>
		<layer id="178" name="573" type="Multiply" version="opset1">
			<data auto_broadcast="numpy"/>
			<rt_info>
				<attribute name="fused_names" version="0" value="572, 573"/>
			</rt_info>
			<input>
				<port id="0" precision="FP32">
					<dim>1</dim>
					<dim>64</dim>
					<dim>128</dim>
					<dim>128</dim>
				</port>
				<port id="1" precision="FP32">
					<dim>1</dim>
					<dim>64</dim>
					<dim>1</dim>
					<dim>1</dim>
				</port>
			</input>
			<output>
				<port id="2" precision="FP32" names="573">
					<dim>1</dim>
					<dim>64</dim>
					<dim>128</dim>
					<dim>128</dim>
				</port>
			</output>
		</layer>
		<layer id="179" name="Constant_30389_compressed" type="Const" version="opset1">
			<data element_type="f16" shape="1, 64, 1, 1" offset="812704" size="128"/>
			<output>
				<port id="0" precision="FP16">
					<dim>1</dim>
					<dim>64</dim>
					<dim>1</dim>
					<dim>1</dim>
				</port>
			</output>
		</layer>
		<layer id="180" name="Constant_30389" type="Convert" version="opset1">
			<data destination_type="f32"/>
			<rt_info>
				<attribute name="decompression" version="0"/>
			</rt_info>
			<input>
				<port id="0" precision="FP16">
					<dim>1</dim>
					<dim>64</dim>
					<dim>1</dim>
					<dim>1</dim>
				</port>
			</input>
			<output>
				<port id="1" precision="FP32">
					<dim>1</dim>
					<dim>64</dim>
					<dim>1</dim>
					<dim>1</dim>
				</port>
			</output>
		</layer>
		<layer id="181" name="575" type="Add" version="opset1">
			<data auto_broadcast="numpy"/>
			<rt_info>
				<attribute name="fused_names" version="0" value="574, 575"/>
			</rt_info>
			<input>
				<port id="0" precision="FP32">
					<dim>1</dim>
					<dim>64</dim>
					<dim>128</dim>
					<dim>128</dim>
				</port>
				<port id="1" precision="FP32">
					<dim>1</dim>
					<dim>64</dim>
					<dim>1</dim>
					<dim>1</dim>
				</port>
			</input>
			<output>
				<port id="2" precision="FP32" names="575">
					<dim>1</dim>
					<dim>64</dim>
					<dim>128</dim>
					<dim>128</dim>
				</port>
			</output>
		</layer>
		<layer id="182" name="576" type="ReLU" version="opset1">
			<rt_info>
				<attribute name="fused_names" version="0" value="576"/>
			</rt_info>
			<input>
				<port id="0" precision="FP32">
					<dim>1</dim>
					<dim>64</dim>
					<dim>128</dim>
					<dim>128</dim>
				</port>
			</input>
			<output>
				<port id="1" precision="FP32" names="576">
					<dim>1</dim>
					<dim>64</dim>
					<dim>128</dim>
					<dim>128</dim>
				</port>
			</output>
		</layer>
		<layer id="183" name="conv4.conv3.weight_compressed" type="Const" version="opset1">
			<data element_type="f16" shape="64, 64, 3, 3" offset="812832" size="73728"/>
			<output>
				<port id="0" precision="FP16">
					<dim>64</dim>
					<dim>64</dim>
					<dim>3</dim>
					<dim>3</dim>
				</port>
			</output>
		</layer>
		<layer id="184" name="conv4.conv3.weight" type="Convert" version="opset1">
			<data destination_type="f32"/>
			<rt_info>
				<attribute name="decompression" version="0"/>
				<attribute name="fused_names" version="0" value="conv4.conv3.weight"/>
			</rt_info>
			<input>
				<port id="0" precision="FP16">
					<dim>64</dim>
					<dim>64</dim>
					<dim>3</dim>
					<dim>3</dim>
				</port>
			</input>
			<output>
				<port id="1" precision="FP32" names="conv4.conv3.weight">
					<dim>64</dim>
					<dim>64</dim>
					<dim>3</dim>
					<dim>3</dim>
				</port>
			</output>
		</layer>
		<layer id="185" name="577" type="Convolution" version="opset1">
			<data strides="1, 1" dilations="1, 1" pads_begin="1, 1" pads_end="1, 1" auto_pad="explicit"/>
			<rt_info>
				<attribute name="fused_names" version="0" value="577"/>
			</rt_info>
			<input>
				<port id="0" precision="FP32">
					<dim>1</dim>
					<dim>64</dim>
					<dim>128</dim>
					<dim>128</dim>
				</port>
				<port id="1" precision="FP32">
					<dim>64</dim>
					<dim>64</dim>
					<dim>3</dim>
					<dim>3</dim>
				</port>
			</input>
			<output>
				<port id="2" precision="FP32" names="577">
					<dim>1</dim>
					<dim>64</dim>
					<dim>128</dim>
					<dim>128</dim>
				</port>
			</output>
		</layer>
		<layer id="186" name="578" type="Concat" version="opset1">
			<data axis="1"/>
			<rt_info>
				<attribute name="fused_names" version="0" value="578"/>
			</rt_info>
			<input>
				<port id="0" precision="FP32">
					<dim>1</dim>
					<dim>128</dim>
					<dim>128</dim>
					<dim>128</dim>
				</port>
				<port id="1" precision="FP32">
					<dim>1</dim>
					<dim>64</dim>
					<dim>128</dim>
					<dim>128</dim>
				</port>
				<port id="2" precision="FP32">
					<dim>1</dim>
					<dim>64</dim>
					<dim>128</dim>
					<dim>128</dim>
				</port>
			</input>
			<output>
				<port id="3" precision="FP32" names="578">
					<dim>1</dim>
					<dim>256</dim>
					<dim>128</dim>
					<dim>128</dim>
				</port>
			</output>
		</layer>
		<layer id="187" name="579" type="Const" version="opset1">
			<data element_type="i64" shape="3" offset="18944" size="24"/>
			<rt_info>
				<attribute name="fused_names" version="0" value="579"/>
			</rt_info>
			<output>
				<port id="0" precision="I64" names="579">
					<dim>3</dim>
				</port>
			</output>
		</layer>
		<layer id="188" name="580" type="Reshape" version="opset1">
			<data special_zero="true"/>
			<rt_info>
				<attribute name="fused_names" version="0" value="580"/>
			</rt_info>
			<input>
				<port id="0" precision="FP32">
					<dim>1</dim>
					<dim>128</dim>
					<dim>128</dim>
					<dim>128</dim>
				</port>
				<port id="1" precision="I64">
					<dim>3</dim>
				</port>
			</input>
			<output>
				<port id="2" precision="FP32" names="580">
					<dim>1</dim>
					<dim>32</dim>
					<dim>65536</dim>
				</port>
			</output>
		</layer>
		<layer id="189" name="Constant_1737" type="Const" version="opset1">
			<data element_type="i64" shape="1" offset="18968" size="8"/>
			<rt_info>
				<attribute name="fused_names" version="0" value="Constant_1737"/>
			</rt_info>
			<output>
				<port id="0" precision="I64">
					<dim>1</dim>
				</port>
			</output>
		</layer>
		<layer id="190" name="MVN_1738" type="MVN" version="opset6">
			<data eps="9.9999997473787516e-06" normalize_variance="true" eps_mode="INSIDE_SQRT"/>
			<rt_info>
				<attribute name="fused_names" version="0" value="583, Concat_1757, Concat_1802, MVN_1738, Multiply_1785, Reshape_1758, Reshape_1803"/>
			</rt_info>
			<input>
				<port id="0" precision="FP32">
					<dim>1</dim>
					<dim>32</dim>
					<dim>65536</dim>
				</port>
				<port id="1" precision="I64">
					<dim>1</dim>
				</port>
			</input>
			<output>
				<port id="2" precision="FP32" names="583">
					<dim>1</dim>
					<dim>32</dim>
					<dim>65536</dim>
				</port>
			</output>
		</layer>
		<layer id="191" name="585" type="Reshape" version="opset1">
			<data special_zero="true"/>
			<rt_info>
				<attribute name="fused_names" version="0" value="585"/>
			</rt_info>
			<input>
				<port id="0" precision="FP32">
					<dim>1</dim>
					<dim>32</dim>
					<dim>65536</dim>
				</port>
				<port id="1" precision="I64">
					<dim>4</dim>
				</port>
			</input>
			<output>
				<port id="2" precision="FP32" names="585">
					<dim>1</dim>
					<dim>128</dim>
					<dim>128</dim>
					<dim>128</dim>
				</port>
			</output>
		</layer>
		<layer id="192" name="Constant_30390_compressed" type="Const" version="opset1">
			<data element_type="f16" shape="1, 128, 1, 1" offset="886560" size="256"/>
			<output>
				<port id="0" precision="FP16">
					<dim>1</dim>
					<dim>128</dim>
					<dim>1</dim>
					<dim>1</dim>
				</port>
			</output>
		</layer>
		<layer id="193" name="Constant_30390" type="Convert" version="opset1">
			<data destination_type="f32"/>
			<rt_info>
				<attribute name="decompression" version="0"/>
			</rt_info>
			<input>
				<port id="0" precision="FP16">
					<dim>1</dim>
					<dim>128</dim>
					<dim>1</dim>
					<dim>1</dim>
				</port>
			</input>
			<output>
				<port id="1" precision="FP32">
					<dim>1</dim>
					<dim>128</dim>
					<dim>1</dim>
					<dim>1</dim>
				</port>
			</output>
		</layer>
		<layer id="194" name="587" type="Multiply" version="opset1">
			<data auto_broadcast="numpy"/>
			<rt_info>
				<attribute name="fused_names" version="0" value="586, 587"/>
			</rt_info>
			<input>
				<port id="0" precision="FP32">
					<dim>1</dim>
					<dim>128</dim>
					<dim>128</dim>
					<dim>128</dim>
				</port>
				<port id="1" precision="FP32">
					<dim>1</dim>
					<dim>128</dim>
					<dim>1</dim>
					<dim>1</dim>
				</port>
			</input>
			<output>
				<port id="2" precision="FP32" names="587">
					<dim>1</dim>
					<dim>128</dim>
					<dim>128</dim>
					<dim>128</dim>
				</port>
			</output>
		</layer>
		<layer id="195" name="Constant_30391_compressed" type="Const" version="opset1">
			<data element_type="f16" shape="1, 128, 1, 1" offset="886816" size="256"/>
			<output>
				<port id="0" precision="FP16">
					<dim>1</dim>
					<dim>128</dim>
					<dim>1</dim>
					<dim>1</dim>
				</port>
			</output>
		</layer>
		<layer id="196" name="Constant_30391" type="Convert" version="opset1">
			<data destination_type="f32"/>
			<rt_info>
				<attribute name="decompression" version="0"/>
			</rt_info>
			<input>
				<port id="0" precision="FP16">
					<dim>1</dim>
					<dim>128</dim>
					<dim>1</dim>
					<dim>1</dim>
				</port>
			</input>
			<output>
				<port id="1" precision="FP32">
					<dim>1</dim>
					<dim>128</dim>
					<dim>1</dim>
					<dim>1</dim>
				</port>
			</output>
		</layer>
		<layer id="197" name="589" type="Add" version="opset1">
			<data auto_broadcast="numpy"/>
			<rt_info>
				<attribute name="fused_names" version="0" value="588, 589"/>
			</rt_info>
			<input>
				<port id="0" precision="FP32">
					<dim>1</dim>
					<dim>128</dim>
					<dim>128</dim>
					<dim>128</dim>
				</port>
				<port id="1" precision="FP32">
					<dim>1</dim>
					<dim>128</dim>
					<dim>1</dim>
					<dim>1</dim>
				</port>
			</input>
			<output>
				<port id="2" precision="FP32" names="589">
					<dim>1</dim>
					<dim>128</dim>
					<dim>128</dim>
					<dim>128</dim>
				</port>
			</output>
		</layer>
		<layer id="198" name="590" type="ReLU" version="opset1">
			<rt_info>
				<attribute name="fused_names" version="0" value="590"/>
			</rt_info>
			<input>
				<port id="0" precision="FP32">
					<dim>1</dim>
					<dim>128</dim>
					<dim>128</dim>
					<dim>128</dim>
				</port>
			</input>
			<output>
				<port id="1" precision="FP32" names="590">
					<dim>1</dim>
					<dim>128</dim>
					<dim>128</dim>
					<dim>128</dim>
				</port>
			</output>
		</layer>
		<layer id="199" name="conv4.downsample.2.weight_compressed" type="Const" version="opset1">
			<data element_type="f16" shape="256, 128, 1, 1" offset="887072" size="65536"/>
			<output>
				<port id="0" precision="FP16">
					<dim>256</dim>
					<dim>128</dim>
					<dim>1</dim>
					<dim>1</dim>
				</port>
			</output>
		</layer>
		<layer id="200" name="conv4.downsample.2.weight" type="Convert" version="opset1">
			<data destination_type="f32"/>
			<rt_info>
				<attribute name="decompression" version="0"/>
				<attribute name="fused_names" version="0" value="conv4.downsample.2.weight"/>
			</rt_info>
			<input>
				<port id="0" precision="FP16">
					<dim>256</dim>
					<dim>128</dim>
					<dim>1</dim>
					<dim>1</dim>
				</port>
			</input>
			<output>
				<port id="1" precision="FP32" names="conv4.downsample.2.weight">
					<dim>256</dim>
					<dim>128</dim>
					<dim>1</dim>
					<dim>1</dim>
				</port>
			</output>
		</layer>
		<layer id="201" name="591" type="Convolution" version="opset1">
			<data strides="1, 1" dilations="1, 1" pads_begin="0, 0" pads_end="0, 0" auto_pad="explicit"/>
			<rt_info>
				<attribute name="fused_names" version="0" value="591"/>
			</rt_info>
			<input>
				<port id="0" precision="FP32">
					<dim>1</dim>
					<dim>128</dim>
					<dim>128</dim>
					<dim>128</dim>
				</port>
				<port id="1" precision="FP32">
					<dim>256</dim>
					<dim>128</dim>
					<dim>1</dim>
					<dim>1</dim>
				</port>
			</input>
			<output>
				<port id="2" precision="FP32" names="591">
					<dim>1</dim>
					<dim>256</dim>
					<dim>128</dim>
					<dim>128</dim>
				</port>
			</output>
		</layer>
		<layer id="202" name="592" type="Add" version="opset1">
			<data auto_broadcast="numpy"/>
			<rt_info>
				<attribute name="fused_names" version="0" value="592, 635"/>
			</rt_info>
			<input>
				<port id="0" precision="FP32">
					<dim>1</dim>
					<dim>256</dim>
					<dim>128</dim>
					<dim>128</dim>
				</port>
				<port id="1" precision="FP32">
					<dim>1</dim>
					<dim>256</dim>
					<dim>128</dim>
					<dim>128</dim>
				</port>
			</input>
			<output>
				<port id="2" precision="FP32" names="592,635">
					<dim>1</dim>
					<dim>256</dim>
					<dim>128</dim>
					<dim>128</dim>
				</port>
			</output>
		</layer>
		<layer id="203" name="593" type="Const" version="opset1">
			<data element_type="i64" shape="3" offset="18944" size="24"/>
			<rt_info>
				<attribute name="fused_names" version="0" value="593"/>
			</rt_info>
			<output>
				<port id="0" precision="I64" names="593">
					<dim>3</dim>
				</port>
			</output>
		</layer>
		<layer id="204" name="594" type="Reshape" version="opset1">
			<data special_zero="true"/>
			<rt_info>
				<attribute name="fused_names" version="0" value="594"/>
			</rt_info>
			<input>
				<port id="0" precision="FP32">
					<dim>1</dim>
					<dim>256</dim>
					<dim>128</dim>
					<dim>128</dim>
				</port>
				<port id="1" precision="I64">
					<dim>3</dim>
				</port>
			</input>
			<output>
				<port id="2" precision="FP32" names="594">
					<dim>1</dim>
					<dim>32</dim>
					<dim>131072</dim>
				</port>
			</output>
		</layer>
		<layer id="205" name="Constant_1857" type="Const" version="opset1">
			<data element_type="i64" shape="1" offset="18968" size="8"/>
			<rt_info>
				<attribute name="fused_names" version="0" value="Constant_1857"/>
			</rt_info>
			<output>
				<port id="0" precision="I64">
					<dim>1</dim>
				</port>
			</output>
		</layer>
		<layer id="206" name="MVN_1858" type="MVN" version="opset6">
			<data eps="9.9999997473787516e-06" normalize_variance="true" eps_mode="INSIDE_SQRT"/>
			<rt_info>
				<attribute name="fused_names" version="0" value="597, Concat_1877, Concat_1922, MVN_1858, Multiply_1905, Reshape_1878, Reshape_1923"/>
			</rt_info>
			<input>
				<port id="0" precision="FP32">
					<dim>1</dim>
					<dim>32</dim>
					<dim>131072</dim>
				</port>
				<port id="1" precision="I64">
					<dim>1</dim>
				</port>
			</input>
			<output>
				<port id="2" precision="FP32" names="597">
					<dim>1</dim>
					<dim>32</dim>
					<dim>131072</dim>
				</port>
			</output>
		</layer>
		<layer id="207" name="598" type="ShapeOf" version="opset3">
			<data output_type="i64"/>
			<rt_info>
				<attribute name="fused_names" version="0" value="598"/>
			</rt_info>
			<input>
				<port id="0" precision="FP32">
					<dim>1</dim>
					<dim>256</dim>
					<dim>128</dim>
					<dim>128</dim>
				</port>
			</input>
			<output>
				<port id="1" precision="I64" names="598">
					<dim>4</dim>
				</port>
			</output>
		</layer>
		<layer id="208" name="599" type="Reshape" version="opset1">
			<data special_zero="true"/>
			<rt_info>
				<attribute name="fused_names" version="0" value="599"/>
			</rt_info>
			<input>
				<port id="0" precision="FP32">
					<dim>1</dim>
					<dim>32</dim>
					<dim>131072</dim>
				</port>
				<port id="1" precision="I64">
					<dim>4</dim>
				</port>
			</input>
			<output>
				<port id="2" precision="FP32" names="599">
					<dim>1</dim>
					<dim>256</dim>
					<dim>128</dim>
					<dim>128</dim>
				</port>
			</output>
		</layer>
		<layer id="209" name="Constant_30392_compressed" type="Const" version="opset1">
			<data element_type="f16" shape="1, 256, 1, 1" offset="952608" size="512"/>
			<output>
				<port id="0" precision="FP16">
					<dim>1</dim>
					<dim>256</dim>
					<dim>1</dim>
					<dim>1</dim>
				</port>
			</output>
		</layer>
		<layer id="210" name="Constant_30392" type="Convert" version="opset1">
			<data destination_type="f32"/>
			<rt_info>
				<attribute name="decompression" version="0"/>
			</rt_info>
			<input>
				<port id="0" precision="FP16">
					<dim>1</dim>
					<dim>256</dim>
					<dim>1</dim>
					<dim>1</dim>
				</port>
			</input>
			<output>
				<port id="1" precision="FP32">
					<dim>1</dim>
					<dim>256</dim>
					<dim>1</dim>
					<dim>1</dim>
				</port>
			</output>
		</layer>
		<layer id="211" name="601" type="Multiply" version="opset1">
			<data auto_broadcast="numpy"/>
			<rt_info>
				<attribute name="fused_names" version="0" value="600, 601"/>
			</rt_info>
			<input>
				<port id="0" precision="FP32">
					<dim>1</dim>
					<dim>256</dim>
					<dim>128</dim>
					<dim>128</dim>
				</port>
				<port id="1" precision="FP32">
					<dim>1</dim>
					<dim>256</dim>
					<dim>1</dim>
					<dim>1</dim>
				</port>
			</input>
			<output>
				<port id="2" precision="FP32" names="601">
					<dim>1</dim>
					<dim>256</dim>
					<dim>128</dim>
					<dim>128</dim>
				</port>
			</output>
		</layer>
		<layer id="212" name="Constant_30393_compressed" type="Const" version="opset1">
			<data element_type="f16" shape="1, 256, 1, 1" offset="953120" size="512"/>
			<output>
				<port id="0" precision="FP16">
					<dim>1</dim>
					<dim>256</dim>
					<dim>1</dim>
					<dim>1</dim>
				</port>
			</output>
		</layer>
		<layer id="213" name="Constant_30393" type="Convert" version="opset1">
			<data destination_type="f32"/>
			<rt_info>
				<attribute name="decompression" version="0"/>
			</rt_info>
			<input>
				<port id="0" precision="FP16">
					<dim>1</dim>
					<dim>256</dim>
					<dim>1</dim>
					<dim>1</dim>
				</port>
			</input>
			<output>
				<port id="1" precision="FP32">
					<dim>1</dim>
					<dim>256</dim>
					<dim>1</dim>
					<dim>1</dim>
				</port>
			</output>
		</layer>
		<layer id="214" name="603" type="Add" version="opset1">
			<data auto_broadcast="numpy"/>
			<rt_info>
				<attribute name="fused_names" version="0" value="602, 603"/>
			</rt_info>
			<input>
				<port id="0" precision="FP32">
					<dim>1</dim>
					<dim>256</dim>
					<dim>128</dim>
					<dim>128</dim>
				</port>
				<port id="1" precision="FP32">
					<dim>1</dim>
					<dim>256</dim>
					<dim>1</dim>
					<dim>1</dim>
				</port>
			</input>
			<output>
				<port id="2" precision="FP32" names="603">
					<dim>1</dim>
					<dim>256</dim>
					<dim>128</dim>
					<dim>128</dim>
				</port>
			</output>
		</layer>
		<layer id="215" name="604" type="ReLU" version="opset1">
			<rt_info>
				<attribute name="fused_names" version="0" value="604"/>
			</rt_info>
			<input>
				<port id="0" precision="FP32">
					<dim>1</dim>
					<dim>256</dim>
					<dim>128</dim>
					<dim>128</dim>
				</port>
			</input>
			<output>
				<port id="1" precision="FP32" names="604">
					<dim>1</dim>
					<dim>256</dim>
					<dim>128</dim>
					<dim>128</dim>
				</port>
			</output>
		</layer>
		<layer id="216" name="m0.b1_2.conv1.weight_compressed" type="Const" version="opset1">
			<data element_type="f16" shape="128, 256, 3, 3" offset="953632" size="589824"/>
			<output>
				<port id="0" precision="FP16">
					<dim>128</dim>
					<dim>256</dim>
					<dim>3</dim>
					<dim>3</dim>
				</port>
			</output>
		</layer>
		<layer id="217" name="m0.b1_2.conv1.weight" type="Convert" version="opset1">
			<data destination_type="f32"/>
			<rt_info>
				<attribute name="decompression" version="0"/>
				<attribute name="fused_names" version="0" value="m0.b1_2.conv1.weight"/>
			</rt_info>
			<input>
				<port id="0" precision="FP16">
					<dim>128</dim>
					<dim>256</dim>
					<dim>3</dim>
					<dim>3</dim>
				</port>
			</input>
			<output>
				<port id="1" precision="FP32" names="m0.b1_2.conv1.weight">
					<dim>128</dim>
					<dim>256</dim>
					<dim>3</dim>
					<dim>3</dim>
				</port>
			</output>
		</layer>
		<layer id="218" name="605" type="Convolution" version="opset1">
			<data strides="1, 1" dilations="1, 1" pads_begin="1, 1" pads_end="1, 1" auto_pad="explicit"/>
			<rt_info>
				<attribute name="fused_names" version="0" value="605"/>
			</rt_info>
			<input>
				<port id="0" precision="FP32">
					<dim>1</dim>
					<dim>256</dim>
					<dim>128</dim>
					<dim>128</dim>
				</port>
				<port id="1" precision="FP32">
					<dim>128</dim>
					<dim>256</dim>
					<dim>3</dim>
					<dim>3</dim>
				</port>
			</input>
			<output>
				<port id="2" precision="FP32" names="605">
					<dim>1</dim>
					<dim>128</dim>
					<dim>128</dim>
					<dim>128</dim>
				</port>
			</output>
		</layer>
		<layer id="219" name="606" type="Const" version="opset1">
			<data element_type="i64" shape="3" offset="18944" size="24"/>
			<rt_info>
				<attribute name="fused_names" version="0" value="606"/>
			</rt_info>
			<output>
				<port id="0" precision="I64" names="606">
					<dim>3</dim>
				</port>
			</output>
		</layer>
		<layer id="220" name="607" type="Reshape" version="opset1">
			<data special_zero="true"/>
			<rt_info>
				<attribute name="fused_names" version="0" value="607"/>
			</rt_info>
			<input>
				<port id="0" precision="FP32">
					<dim>1</dim>
					<dim>128</dim>
					<dim>128</dim>
					<dim>128</dim>
				</port>
				<port id="1" precision="I64">
					<dim>3</dim>
				</port>
			</input>
			<output>
				<port id="2" precision="FP32" names="607">
					<dim>1</dim>
					<dim>32</dim>
					<dim>65536</dim>
				</port>
			</output>
		</layer>
		<layer id="221" name="Constant_1976" type="Const" version="opset1">
			<data element_type="i64" shape="1" offset="18968" size="8"/>
			<rt_info>
				<attribute name="fused_names" version="0" value="Constant_1976"/>
			</rt_info>
			<output>
				<port id="0" precision="I64">
					<dim>1</dim>
				</port>
			</output>
		</layer>
		<layer id="222" name="MVN_1977" type="MVN" version="opset6">
			<data eps="9.9999997473787516e-06" normalize_variance="true" eps_mode="INSIDE_SQRT"/>
			<rt_info>
				<attribute name="fused_names" version="0" value="610, Concat_1996, Concat_2041, MVN_1977, Multiply_2024, Reshape_1997, Reshape_2042"/>
			</rt_info>
			<input>
				<port id="0" precision="FP32">
					<dim>1</dim>
					<dim>32</dim>
					<dim>65536</dim>
				</port>
				<port id="1" precision="I64">
					<dim>1</dim>
				</port>
			</input>
			<output>
				<port id="2" precision="FP32" names="610">
					<dim>1</dim>
					<dim>32</dim>
					<dim>65536</dim>
				</port>
			</output>
		</layer>
		<layer id="223" name="611" type="ShapeOf" version="opset3">
			<data output_type="i64"/>
			<rt_info>
				<attribute name="fused_names" version="0" value="611"/>
			</rt_info>
			<input>
				<port id="0" precision="FP32">
					<dim>1</dim>
					<dim>128</dim>
					<dim>128</dim>
					<dim>128</dim>
				</port>
			</input>
			<output>
				<port id="1" precision="I64" names="611">
					<dim>4</dim>
				</port>
			</output>
		</layer>
		<layer id="224" name="612" type="Reshape" version="opset1">
			<data special_zero="true"/>
			<rt_info>
				<attribute name="fused_names" version="0" value="612"/>
			</rt_info>
			<input>
				<port id="0" precision="FP32">
					<dim>1</dim>
					<dim>32</dim>
					<dim>65536</dim>
				</port>
				<port id="1" precision="I64">
					<dim>4</dim>
				</port>
			</input>
			<output>
				<port id="2" precision="FP32" names="612">
					<dim>1</dim>
					<dim>128</dim>
					<dim>128</dim>
					<dim>128</dim>
				</port>
			</output>
		</layer>
		<layer id="225" name="Constant_30394_compressed" type="Const" version="opset1">
			<data element_type="f16" shape="1, 128, 1, 1" offset="1543456" size="256"/>
			<output>
				<port id="0" precision="FP16">
					<dim>1</dim>
					<dim>128</dim>
					<dim>1</dim>
					<dim>1</dim>
				</port>
			</output>
		</layer>
		<layer id="226" name="Constant_30394" type="Convert" version="opset1">
			<data destination_type="f32"/>
			<rt_info>
				<attribute name="decompression" version="0"/>
			</rt_info>
			<input>
				<port id="0" precision="FP16">
					<dim>1</dim>
					<dim>128</dim>
					<dim>1</dim>
					<dim>1</dim>
				</port>
			</input>
			<output>
				<port id="1" precision="FP32">
					<dim>1</dim>
					<dim>128</dim>
					<dim>1</dim>
					<dim>1</dim>
				</port>
			</output>
		</layer>
		<layer id="227" name="614" type="Multiply" version="opset1">
			<data auto_broadcast="numpy"/>
			<rt_info>
				<attribute name="fused_names" version="0" value="613, 614"/>
			</rt_info>
			<input>
				<port id="0" precision="FP32">
					<dim>1</dim>
					<dim>128</dim>
					<dim>128</dim>
					<dim>128</dim>
				</port>
				<port id="1" precision="FP32">
					<dim>1</dim>
					<dim>128</dim>
					<dim>1</dim>
					<dim>1</dim>
				</port>
			</input>
			<output>
				<port id="2" precision="FP32" names="614">
					<dim>1</dim>
					<dim>128</dim>
					<dim>128</dim>
					<dim>128</dim>
				</port>
			</output>
		</layer>
		<layer id="228" name="Constant_30395_compressed" type="Const" version="opset1">
			<data element_type="f16" shape="1, 128, 1, 1" offset="1543712" size="256"/>
			<output>
				<port id="0" precision="FP16">
					<dim>1</dim>
					<dim>128</dim>
					<dim>1</dim>
					<dim>1</dim>
				</port>
			</output>
		</layer>
		<layer id="229" name="Constant_30395" type="Convert" version="opset1">
			<data destination_type="f32"/>
			<rt_info>
				<attribute name="decompression" version="0"/>
			</rt_info>
			<input>
				<port id="0" precision="FP16">
					<dim>1</dim>
					<dim>128</dim>
					<dim>1</dim>
					<dim>1</dim>
				</port>
			</input>
			<output>
				<port id="1" precision="FP32">
					<dim>1</dim>
					<dim>128</dim>
					<dim>1</dim>
					<dim>1</dim>
				</port>
			</output>
		</layer>
		<layer id="230" name="616" type="Add" version="opset1">
			<data auto_broadcast="numpy"/>
			<rt_info>
				<attribute name="fused_names" version="0" value="615, 616"/>
			</rt_info>
			<input>
				<port id="0" precision="FP32">
					<dim>1</dim>
					<dim>128</dim>
					<dim>128</dim>
					<dim>128</dim>
				</port>
				<port id="1" precision="FP32">
					<dim>1</dim>
					<dim>128</dim>
					<dim>1</dim>
					<dim>1</dim>
				</port>
			</input>
			<output>
				<port id="2" precision="FP32" names="616">
					<dim>1</dim>
					<dim>128</dim>
					<dim>128</dim>
					<dim>128</dim>
				</port>
			</output>
		</layer>
		<layer id="231" name="617" type="ReLU" version="opset1">
			<rt_info>
				<attribute name="fused_names" version="0" value="617"/>
			</rt_info>
			<input>
				<port id="0" precision="FP32">
					<dim>1</dim>
					<dim>128</dim>
					<dim>128</dim>
					<dim>128</dim>
				</port>
			</input>
			<output>
				<port id="1" precision="FP32" names="617">
					<dim>1</dim>
					<dim>128</dim>
					<dim>128</dim>
					<dim>128</dim>
				</port>
			</output>
		</layer>
		<layer id="232" name="m0.b1_2.conv2.weight_compressed" type="Const" version="opset1">
			<data element_type="f16" shape="64, 128, 3, 3" offset="1543968" size="147456"/>
			<output>
				<port id="0" precision="FP16">
					<dim>64</dim>
					<dim>128</dim>
					<dim>3</dim>
					<dim>3</dim>
				</port>
			</output>
		</layer>
		<layer id="233" name="m0.b1_2.conv2.weight" type="Convert" version="opset1">
			<data destination_type="f32"/>
			<rt_info>
				<attribute name="decompression" version="0"/>
				<attribute name="fused_names" version="0" value="m0.b1_2.conv2.weight"/>
			</rt_info>
			<input>
				<port id="0" precision="FP16">
					<dim>64</dim>
					<dim>128</dim>
					<dim>3</dim>
					<dim>3</dim>
				</port>
			</input>
			<output>
				<port id="1" precision="FP32" names="m0.b1_2.conv2.weight">
					<dim>64</dim>
					<dim>128</dim>
					<dim>3</dim>
					<dim>3</dim>
				</port>
			</output>
		</layer>
		<layer id="234" name="618" type="Convolution" version="opset1">
			<data strides="1, 1" dilations="1, 1" pads_begin="1, 1" pads_end="1, 1" auto_pad="explicit"/>
			<rt_info>
				<attribute name="fused_names" version="0" value="618"/>
			</rt_info>
			<input>
				<port id="0" precision="FP32">
					<dim>1</dim>
					<dim>128</dim>
					<dim>128</dim>
					<dim>128</dim>
				</port>
				<port id="1" precision="FP32">
					<dim>64</dim>
					<dim>128</dim>
					<dim>3</dim>
					<dim>3</dim>
				</port>
			</input>
			<output>
				<port id="2" precision="FP32" names="618">
					<dim>1</dim>
					<dim>64</dim>
					<dim>128</dim>
					<dim>128</dim>
				</port>
			</output>
		</layer>
		<layer id="235" name="619" type="Const" version="opset1">
			<data element_type="i64" shape="3" offset="18944" size="24"/>
			<rt_info>
				<attribute name="fused_names" version="0" value="619"/>
			</rt_info>
			<output>
				<port id="0" precision="I64" names="619">
					<dim>3</dim>
				</port>
			</output>
		</layer>
		<layer id="236" name="620" type="Reshape" version="opset1">
			<data special_zero="true"/>
			<rt_info>
				<attribute name="fused_names" version="0" value="620"/>
			</rt_info>
			<input>
				<port id="0" precision="FP32">
					<dim>1</dim>
					<dim>64</dim>
					<dim>128</dim>
					<dim>128</dim>
				</port>
				<port id="1" precision="I64">
					<dim>3</dim>
				</port>
			</input>
			<output>
				<port id="2" precision="FP32" names="620">
					<dim>1</dim>
					<dim>32</dim>
					<dim>32768</dim>
				</port>
			</output>
		</layer>
		<layer id="237" name="Constant_2095" type="Const" version="opset1">
			<data element_type="i64" shape="1" offset="18968" size="8"/>
			<rt_info>
				<attribute name="fused_names" version="0" value="Constant_2095"/>
			</rt_info>
			<output>
				<port id="0" precision="I64">
					<dim>1</dim>
				</port>
			</output>
		</layer>
		<layer id="238" name="MVN_2096" type="MVN" version="opset6">
			<data eps="9.9999997473787516e-06" normalize_variance="true" eps_mode="INSIDE_SQRT"/>
			<rt_info>
				<attribute name="fused_names" version="0" value="623, Concat_2115, Concat_2160, MVN_2096, Multiply_2143, Reshape_2116, Reshape_2161"/>
			</rt_info>
			<input>
				<port id="0" precision="FP32">
					<dim>1</dim>
					<dim>32</dim>
					<dim>32768</dim>
				</port>
				<port id="1" precision="I64">
					<dim>1</dim>
				</port>
			</input>
			<output>
				<port id="2" precision="FP32" names="623">
					<dim>1</dim>
					<dim>32</dim>
					<dim>32768</dim>
				</port>
			</output>
		</layer>
		<layer id="239" name="624" type="ShapeOf" version="opset3">
			<data output_type="i64"/>
			<rt_info>
				<attribute name="fused_names" version="0" value="624"/>
			</rt_info>
			<input>
				<port id="0" precision="FP32">
					<dim>1</dim>
					<dim>64</dim>
					<dim>128</dim>
					<dim>128</dim>
				</port>
			</input>
			<output>
				<port id="1" precision="I64" names="624">
					<dim>4</dim>
				</port>
			</output>
		</layer>
		<layer id="240" name="625" type="Reshape" version="opset1">
			<data special_zero="true"/>
			<rt_info>
				<attribute name="fused_names" version="0" value="625"/>
			</rt_info>
			<input>
				<port id="0" precision="FP32">
					<dim>1</dim>
					<dim>32</dim>
					<dim>32768</dim>
				</port>
				<port id="1" precision="I64">
					<dim>4</dim>
				</port>
			</input>
			<output>
				<port id="2" precision="FP32" names="625">
					<dim>1</dim>
					<dim>64</dim>
					<dim>128</dim>
					<dim>128</dim>
				</port>
			</output>
		</layer>
		<layer id="241" name="Constant_30396_compressed" type="Const" version="opset1">
			<data element_type="f16" shape="1, 64, 1, 1" offset="1691424" size="128"/>
			<output>
				<port id="0" precision="FP16">
					<dim>1</dim>
					<dim>64</dim>
					<dim>1</dim>
					<dim>1</dim>
				</port>
			</output>
		</layer>
		<layer id="242" name="Constant_30396" type="Convert" version="opset1">
			<data destination_type="f32"/>
			<rt_info>
				<attribute name="decompression" version="0"/>
			</rt_info>
			<input>
				<port id="0" precision="FP16">
					<dim>1</dim>
					<dim>64</dim>
					<dim>1</dim>
					<dim>1</dim>
				</port>
			</input>
			<output>
				<port id="1" precision="FP32">
					<dim>1</dim>
					<dim>64</dim>
					<dim>1</dim>
					<dim>1</dim>
				</port>
			</output>
		</layer>
		<layer id="243" name="627" type="Multiply" version="opset1">
			<data auto_broadcast="numpy"/>
			<rt_info>
				<attribute name="fused_names" version="0" value="626, 627"/>
			</rt_info>
			<input>
				<port id="0" precision="FP32">
					<dim>1</dim>
					<dim>64</dim>
					<dim>128</dim>
					<dim>128</dim>
				</port>
				<port id="1" precision="FP32">
					<dim>1</dim>
					<dim>64</dim>
					<dim>1</dim>
					<dim>1</dim>
				</port>
			</input>
			<output>
				<port id="2" precision="FP32" names="627">
					<dim>1</dim>
					<dim>64</dim>
					<dim>128</dim>
					<dim>128</dim>
				</port>
			</output>
		</layer>
		<layer id="244" name="Constant_30397_compressed" type="Const" version="opset1">
			<data element_type="f16" shape="1, 64, 1, 1" offset="1691552" size="128"/>
			<output>
				<port id="0" precision="FP16">
					<dim>1</dim>
					<dim>64</dim>
					<dim>1</dim>
					<dim>1</dim>
				</port>
			</output>
		</layer>
		<layer id="245" name="Constant_30397" type="Convert" version="opset1">
			<data destination_type="f32"/>
			<rt_info>
				<attribute name="decompression" version="0"/>
			</rt_info>
			<input>
				<port id="0" precision="FP16">
					<dim>1</dim>
					<dim>64</dim>
					<dim>1</dim>
					<dim>1</dim>
				</port>
			</input>
			<output>
				<port id="1" precision="FP32">
					<dim>1</dim>
					<dim>64</dim>
					<dim>1</dim>
					<dim>1</dim>
				</port>
			</output>
		</layer>
		<layer id="246" name="629" type="Add" version="opset1">
			<data auto_broadcast="numpy"/>
			<rt_info>
				<attribute name="fused_names" version="0" value="628, 629"/>
			</rt_info>
			<input>
				<port id="0" precision="FP32">
					<dim>1</dim>
					<dim>64</dim>
					<dim>128</dim>
					<dim>128</dim>
				</port>
				<port id="1" precision="FP32">
					<dim>1</dim>
					<dim>64</dim>
					<dim>1</dim>
					<dim>1</dim>
				</port>
			</input>
			<output>
				<port id="2" precision="FP32" names="629">
					<dim>1</dim>
					<dim>64</dim>
					<dim>128</dim>
					<dim>128</dim>
				</port>
			</output>
		</layer>
		<layer id="247" name="630" type="ReLU" version="opset1">
			<rt_info>
				<attribute name="fused_names" version="0" value="630"/>
			</rt_info>
			<input>
				<port id="0" precision="FP32">
					<dim>1</dim>
					<dim>64</dim>
					<dim>128</dim>
					<dim>128</dim>
				</port>
			</input>
			<output>
				<port id="1" precision="FP32" names="630">
					<dim>1</dim>
					<dim>64</dim>
					<dim>128</dim>
					<dim>128</dim>
				</port>
			</output>
		</layer>
		<layer id="248" name="m0.b1_2.conv3.weight_compressed" type="Const" version="opset1">
			<data element_type="f16" shape="64, 64, 3, 3" offset="1691680" size="73728"/>
			<output>
				<port id="0" precision="FP16">
					<dim>64</dim>
					<dim>64</dim>
					<dim>3</dim>
					<dim>3</dim>
				</port>
			</output>
		</layer>
		<layer id="249" name="m0.b1_2.conv3.weight" type="Convert" version="opset1">
			<data destination_type="f32"/>
			<rt_info>
				<attribute name="decompression" version="0"/>
				<attribute name="fused_names" version="0" value="m0.b1_2.conv3.weight"/>
			</rt_info>
			<input>
				<port id="0" precision="FP16">
					<dim>64</dim>
					<dim>64</dim>
					<dim>3</dim>
					<dim>3</dim>
				</port>
			</input>
			<output>
				<port id="1" precision="FP32" names="m0.b1_2.conv3.weight">
					<dim>64</dim>
					<dim>64</dim>
					<dim>3</dim>
					<dim>3</dim>
				</port>
			</output>
		</layer>
		<layer id="250" name="631" type="Convolution" version="opset1">
			<data strides="1, 1" dilations="1, 1" pads_begin="1, 1" pads_end="1, 1" auto_pad="explicit"/>
			<rt_info>
				<attribute name="fused_names" version="0" value="631"/>
			</rt_info>
			<input>
				<port id="0" precision="FP32">
					<dim>1</dim>
					<dim>64</dim>
					<dim>128</dim>
					<dim>128</dim>
				</port>
				<port id="1" precision="FP32">
					<dim>64</dim>
					<dim>64</dim>
					<dim>3</dim>
					<dim>3</dim>
				</port>
			</input>
			<output>
				<port id="2" precision="FP32" names="631">
					<dim>1</dim>
					<dim>64</dim>
					<dim>128</dim>
					<dim>128</dim>
				</port>
			</output>
		</layer>
		<layer id="251" name="632" type="Concat" version="opset1">
			<data axis="1"/>
			<rt_info>
				<attribute name="fused_names" version="0" value="632"/>
			</rt_info>
			<input>
				<port id="0" precision="FP32">
					<dim>1</dim>
					<dim>128</dim>
					<dim>128</dim>
					<dim>128</dim>
				</port>
				<port id="1" precision="FP32">
					<dim>1</dim>
					<dim>64</dim>
					<dim>128</dim>
					<dim>128</dim>
				</port>
				<port id="2" precision="FP32">
					<dim>1</dim>
					<dim>64</dim>
					<dim>128</dim>
					<dim>128</dim>
				</port>
			</input>
			<output>
				<port id="3" precision="FP32" names="632">
					<dim>1</dim>
					<dim>256</dim>
					<dim>128</dim>
					<dim>128</dim>
				</port>
			</output>
		</layer>
		<layer id="252" name="633" type="Add" version="opset1">
			<data auto_broadcast="numpy"/>
			<rt_info>
				<attribute name="fused_names" version="0" value="633"/>
			</rt_info>
			<input>
				<port id="0" precision="FP32">
					<dim>1</dim>
					<dim>256</dim>
					<dim>128</dim>
					<dim>128</dim>
				</port>
				<port id="1" precision="FP32">
					<dim>1</dim>
					<dim>256</dim>
					<dim>128</dim>
					<dim>128</dim>
				</port>
			</input>
			<output>
				<port id="2" precision="FP32" names="633">
					<dim>1</dim>
					<dim>256</dim>
					<dim>128</dim>
					<dim>128</dim>
				</port>
			</output>
		</layer>
		<layer id="253" name="636" type="AvgPool" version="opset1">
			<data kernel="2, 2" strides="2, 2" pads_begin="0, 0" pads_end="0, 0" exclude-pad="true" auto_pad="explicit" rounding_type="floor"/>
			<rt_info>
				<attribute name="fused_names" version="0" value="636"/>
			</rt_info>
			<input>
				<port id="0" precision="FP32">
					<dim>1</dim>
					<dim>256</dim>
					<dim>128</dim>
					<dim>128</dim>
				</port>
			</input>
			<output>
				<port id="1" precision="FP32" names="636">
					<dim>1</dim>
					<dim>256</dim>
					<dim>64</dim>
					<dim>64</dim>
				</port>
			</output>
		</layer>
		<layer id="254" name="637" type="Const" version="opset1">
			<data element_type="i64" shape="3" offset="18944" size="24"/>
			<rt_info>
				<attribute name="fused_names" version="0" value="637"/>
			</rt_info>
			<output>
				<port id="0" precision="I64" names="637">
					<dim>3</dim>
				</port>
			</output>
		</layer>
		<layer id="255" name="638" type="Reshape" version="opset1">
			<data special_zero="true"/>
			<rt_info>
				<attribute name="fused_names" version="0" value="638"/>
			</rt_info>
			<input>
				<port id="0" precision="FP32">
					<dim>1</dim>
					<dim>256</dim>
					<dim>64</dim>
					<dim>64</dim>
				</port>
				<port id="1" precision="I64">
					<dim>3</dim>
				</port>
			</input>
			<output>
				<port id="2" precision="FP32" names="638">
					<dim>1</dim>
					<dim>32</dim>
					<dim>32768</dim>
				</port>
			</output>
		</layer>
		<layer id="256" name="Constant_2222" type="Const" version="opset1">
			<data element_type="i64" shape="1" offset="18968" size="8"/>
			<rt_info>
				<attribute name="fused_names" version="0" value="Constant_2222"/>
			</rt_info>
			<output>
				<port id="0" precision="I64">
					<dim>1</dim>
				</port>
			</output>
		</layer>
		<layer id="257" name="MVN_2223" type="MVN" version="opset6">
			<data eps="9.9999997473787516e-06" normalize_variance="true" eps_mode="INSIDE_SQRT"/>
			<rt_info>
				<attribute name="fused_names" version="0" value="641, Concat_2242, Concat_2287, MVN_2223, Multiply_2270, Reshape_2243, Reshape_2288"/>
			</rt_info>
			<input>
				<port id="0" precision="FP32">
					<dim>1</dim>
					<dim>32</dim>
					<dim>32768</dim>
				</port>
				<port id="1" precision="I64">
					<dim>1</dim>
				</port>
			</input>
			<output>
				<port id="2" precision="FP32" names="641">
					<dim>1</dim>
					<dim>32</dim>
					<dim>32768</dim>
				</port>
			</output>
		</layer>
		<layer id="258" name="642" type="ShapeOf" version="opset3">
			<data output_type="i64"/>
			<rt_info>
				<attribute name="fused_names" version="0" value="642"/>
			</rt_info>
			<input>
				<port id="0" precision="FP32">
					<dim>1</dim>
					<dim>256</dim>
					<dim>64</dim>
					<dim>64</dim>
				</port>
			</input>
			<output>
				<port id="1" precision="I64" names="642">
					<dim>4</dim>
				</port>
			</output>
		</layer>
		<layer id="259" name="643" type="Reshape" version="opset1">
			<data special_zero="true"/>
			<rt_info>
				<attribute name="fused_names" version="0" value="643"/>
			</rt_info>
			<input>
				<port id="0" precision="FP32">
					<dim>1</dim>
					<dim>32</dim>
					<dim>32768</dim>
				</port>
				<port id="1" precision="I64">
					<dim>4</dim>
				</port>
			</input>
			<output>
				<port id="2" precision="FP32" names="643">
					<dim>1</dim>
					<dim>256</dim>
					<dim>64</dim>
					<dim>64</dim>
				</port>
			</output>
		</layer>
		<layer id="260" name="Constant_30398_compressed" type="Const" version="opset1">
			<data element_type="f16" shape="1, 256, 1, 1" offset="1765408" size="512"/>
			<output>
				<port id="0" precision="FP16">
					<dim>1</dim>
					<dim>256</dim>
					<dim>1</dim>
					<dim>1</dim>
				</port>
			</output>
		</layer>
		<layer id="261" name="Constant_30398" type="Convert" version="opset1">
			<data destination_type="f32"/>
			<rt_info>
				<attribute name="decompression" version="0"/>
			</rt_info>
			<input>
				<port id="0" precision="FP16">
					<dim>1</dim>
					<dim>256</dim>
					<dim>1</dim>
					<dim>1</dim>
				</port>
			</input>
			<output>
				<port id="1" precision="FP32">
					<dim>1</dim>
					<dim>256</dim>
					<dim>1</dim>
					<dim>1</dim>
				</port>
			</output>
		</layer>
		<layer id="262" name="645" type="Multiply" version="opset1">
			<data auto_broadcast="numpy"/>
			<rt_info>
				<attribute name="fused_names" version="0" value="644, 645"/>
			</rt_info>
			<input>
				<port id="0" precision="FP32">
					<dim>1</dim>
					<dim>256</dim>
					<dim>64</dim>
					<dim>64</dim>
				</port>
				<port id="1" precision="FP32">
					<dim>1</dim>
					<dim>256</dim>
					<dim>1</dim>
					<dim>1</dim>
				</port>
			</input>
			<output>
				<port id="2" precision="FP32" names="645">
					<dim>1</dim>
					<dim>256</dim>
					<dim>64</dim>
					<dim>64</dim>
				</port>
			</output>
		</layer>
		<layer id="263" name="Constant_30399_compressed" type="Const" version="opset1">
			<data element_type="f16" shape="1, 256, 1, 1" offset="1765920" size="512"/>
			<output>
				<port id="0" precision="FP16">
					<dim>1</dim>
					<dim>256</dim>
					<dim>1</dim>
					<dim>1</dim>
				</port>
			</output>
		</layer>
		<layer id="264" name="Constant_30399" type="Convert" version="opset1">
			<data destination_type="f32"/>
			<rt_info>
				<attribute name="decompression" version="0"/>
			</rt_info>
			<input>
				<port id="0" precision="FP16">
					<dim>1</dim>
					<dim>256</dim>
					<dim>1</dim>
					<dim>1</dim>
				</port>
			</input>
			<output>
				<port id="1" precision="FP32">
					<dim>1</dim>
					<dim>256</dim>
					<dim>1</dim>
					<dim>1</dim>
				</port>
			</output>
		</layer>
		<layer id="265" name="647" type="Add" version="opset1">
			<data auto_broadcast="numpy"/>
			<rt_info>
				<attribute name="fused_names" version="0" value="646, 647"/>
			</rt_info>
			<input>
				<port id="0" precision="FP32">
					<dim>1</dim>
					<dim>256</dim>
					<dim>64</dim>
					<dim>64</dim>
				</port>
				<port id="1" precision="FP32">
					<dim>1</dim>
					<dim>256</dim>
					<dim>1</dim>
					<dim>1</dim>
				</port>
			</input>
			<output>
				<port id="2" precision="FP32" names="647">
					<dim>1</dim>
					<dim>256</dim>
					<dim>64</dim>
					<dim>64</dim>
				</port>
			</output>
		</layer>
		<layer id="266" name="648" type="ReLU" version="opset1">
			<rt_info>
				<attribute name="fused_names" version="0" value="648"/>
			</rt_info>
			<input>
				<port id="0" precision="FP32">
					<dim>1</dim>
					<dim>256</dim>
					<dim>64</dim>
					<dim>64</dim>
				</port>
			</input>
			<output>
				<port id="1" precision="FP32" names="648">
					<dim>1</dim>
					<dim>256</dim>
					<dim>64</dim>
					<dim>64</dim>
				</port>
			</output>
		</layer>
		<layer id="267" name="m0.b2_2.conv1.weight_compressed" type="Const" version="opset1">
			<data element_type="f16" shape="128, 256, 3, 3" offset="1766432" size="589824"/>
			<output>
				<port id="0" precision="FP16">
					<dim>128</dim>
					<dim>256</dim>
					<dim>3</dim>
					<dim>3</dim>
				</port>
			</output>
		</layer>
		<layer id="268" name="m0.b2_2.conv1.weight" type="Convert" version="opset1">
			<data destination_type="f32"/>
			<rt_info>
				<attribute name="decompression" version="0"/>
				<attribute name="fused_names" version="0" value="m0.b2_2.conv1.weight"/>
			</rt_info>
			<input>
				<port id="0" precision="FP16">
					<dim>128</dim>
					<dim>256</dim>
					<dim>3</dim>
					<dim>3</dim>
				</port>
			</input>
			<output>
				<port id="1" precision="FP32" names="m0.b2_2.conv1.weight">
					<dim>128</dim>
					<dim>256</dim>
					<dim>3</dim>
					<dim>3</dim>
				</port>
			</output>
		</layer>
		<layer id="269" name="649" type="Convolution" version="opset1">
			<data strides="1, 1" dilations="1, 1" pads_begin="1, 1" pads_end="1, 1" auto_pad="explicit"/>
			<rt_info>
				<attribute name="fused_names" version="0" value="649"/>
			</rt_info>
			<input>
				<port id="0" precision="FP32">
					<dim>1</dim>
					<dim>256</dim>
					<dim>64</dim>
					<dim>64</dim>
				</port>
				<port id="1" precision="FP32">
					<dim>128</dim>
					<dim>256</dim>
					<dim>3</dim>
					<dim>3</dim>
				</port>
			</input>
			<output>
				<port id="2" precision="FP32" names="649">
					<dim>1</dim>
					<dim>128</dim>
					<dim>64</dim>
					<dim>64</dim>
				</port>
			</output>
		</layer>
		<layer id="270" name="650" type="Const" version="opset1">
			<data element_type="i64" shape="3" offset="18944" size="24"/>
			<rt_info>
				<attribute name="fused_names" version="0" value="650"/>
			</rt_info>
			<output>
				<port id="0" precision="I64" names="650">
					<dim>3</dim>
				</port>
			</output>
		</layer>
		<layer id="271" name="651" type="Reshape" version="opset1">
			<data special_zero="true"/>
			<rt_info>
				<attribute name="fused_names" version="0" value="651"/>
			</rt_info>
			<input>
				<port id="0" precision="FP32">
					<dim>1</dim>
					<dim>128</dim>
					<dim>64</dim>
					<dim>64</dim>
				</port>
				<port id="1" precision="I64">
					<dim>3</dim>
				</port>
			</input>
			<output>
				<port id="2" precision="FP32" names="651">
					<dim>1</dim>
					<dim>32</dim>
					<dim>16384</dim>
				</port>
			</output>
		</layer>
		<layer id="272" name="Constant_2341" type="Const" version="opset1">
			<data element_type="i64" shape="1" offset="18968" size="8"/>
			<rt_info>
				<attribute name="fused_names" version="0" value="Constant_2341"/>
			</rt_info>
			<output>
				<port id="0" precision="I64">
					<dim>1</dim>
				</port>
			</output>
		</layer>
		<layer id="273" name="MVN_2342" type="MVN" version="opset6">
			<data eps="9.9999997473787516e-06" normalize_variance="true" eps_mode="INSIDE_SQRT"/>
			<rt_info>
				<attribute name="fused_names" version="0" value="654, Concat_2361, Concat_2406, MVN_2342, Multiply_2389, Reshape_2362, Reshape_2407"/>
			</rt_info>
			<input>
				<port id="0" precision="FP32">
					<dim>1</dim>
					<dim>32</dim>
					<dim>16384</dim>
				</port>
				<port id="1" precision="I64">
					<dim>1</dim>
				</port>
			</input>
			<output>
				<port id="2" precision="FP32" names="654">
					<dim>1</dim>
					<dim>32</dim>
					<dim>16384</dim>
				</port>
			</output>
		</layer>
		<layer id="274" name="655" type="ShapeOf" version="opset3">
			<data output_type="i64"/>
			<rt_info>
				<attribute name="fused_names" version="0" value="655"/>
			</rt_info>
			<input>
				<port id="0" precision="FP32">
					<dim>1</dim>
					<dim>128</dim>
					<dim>64</dim>
					<dim>64</dim>
				</port>
			</input>
			<output>
				<port id="1" precision="I64" names="655">
					<dim>4</dim>
				</port>
			</output>
		</layer>
		<layer id="275" name="656" type="Reshape" version="opset1">
			<data special_zero="true"/>
			<rt_info>
				<attribute name="fused_names" version="0" value="656"/>
			</rt_info>
			<input>
				<port id="0" precision="FP32">
					<dim>1</dim>
					<dim>32</dim>
					<dim>16384</dim>
				</port>
				<port id="1" precision="I64">
					<dim>4</dim>
				</port>
			</input>
			<output>
				<port id="2" precision="FP32" names="656">
					<dim>1</dim>
					<dim>128</dim>
					<dim>64</dim>
					<dim>64</dim>
				</port>
			</output>
		</layer>
		<layer id="276" name="Constant_30400_compressed" type="Const" version="opset1">
			<data element_type="f16" shape="1, 128, 1, 1" offset="2356256" size="256"/>
			<output>
				<port id="0" precision="FP16">
					<dim>1</dim>
					<dim>128</dim>
					<dim>1</dim>
					<dim>1</dim>
				</port>
			</output>
		</layer>
		<layer id="277" name="Constant_30400" type="Convert" version="opset1">
			<data destination_type="f32"/>
			<rt_info>
				<attribute name="decompression" version="0"/>
			</rt_info>
			<input>
				<port id="0" precision="FP16">
					<dim>1</dim>
					<dim>128</dim>
					<dim>1</dim>
					<dim>1</dim>
				</port>
			</input>
			<output>
				<port id="1" precision="FP32">
					<dim>1</dim>
					<dim>128</dim>
					<dim>1</dim>
					<dim>1</dim>
				</port>
			</output>
		</layer>
		<layer id="278" name="658" type="Multiply" version="opset1">
			<data auto_broadcast="numpy"/>
			<rt_info>
				<attribute name="fused_names" version="0" value="657, 658"/>
			</rt_info>
			<input>
				<port id="0" precision="FP32">
					<dim>1</dim>
					<dim>128</dim>
					<dim>64</dim>
					<dim>64</dim>
				</port>
				<port id="1" precision="FP32">
					<dim>1</dim>
					<dim>128</dim>
					<dim>1</dim>
					<dim>1</dim>
				</port>
			</input>
			<output>
				<port id="2" precision="FP32" names="658">
					<dim>1</dim>
					<dim>128</dim>
					<dim>64</dim>
					<dim>64</dim>
				</port>
			</output>
		</layer>
		<layer id="279" name="Constant_30401_compressed" type="Const" version="opset1">
			<data element_type="f16" shape="1, 128, 1, 1" offset="2356512" size="256"/>
			<output>
				<port id="0" precision="FP16">
					<dim>1</dim>
					<dim>128</dim>
					<dim>1</dim>
					<dim>1</dim>
				</port>
			</output>
		</layer>
		<layer id="280" name="Constant_30401" type="Convert" version="opset1">
			<data destination_type="f32"/>
			<rt_info>
				<attribute name="decompression" version="0"/>
			</rt_info>
			<input>
				<port id="0" precision="FP16">
					<dim>1</dim>
					<dim>128</dim>
					<dim>1</dim>
					<dim>1</dim>
				</port>
			</input>
			<output>
				<port id="1" precision="FP32">
					<dim>1</dim>
					<dim>128</dim>
					<dim>1</dim>
					<dim>1</dim>
				</port>
			</output>
		</layer>
		<layer id="281" name="660" type="Add" version="opset1">
			<data auto_broadcast="numpy"/>
			<rt_info>
				<attribute name="fused_names" version="0" value="659, 660"/>
			</rt_info>
			<input>
				<port id="0" precision="FP32">
					<dim>1</dim>
					<dim>128</dim>
					<dim>64</dim>
					<dim>64</dim>
				</port>
				<port id="1" precision="FP32">
					<dim>1</dim>
					<dim>128</dim>
					<dim>1</dim>
					<dim>1</dim>
				</port>
			</input>
			<output>
				<port id="2" precision="FP32" names="660">
					<dim>1</dim>
					<dim>128</dim>
					<dim>64</dim>
					<dim>64</dim>
				</port>
			</output>
		</layer>
		<layer id="282" name="661" type="ReLU" version="opset1">
			<rt_info>
				<attribute name="fused_names" version="0" value="661"/>
			</rt_info>
			<input>
				<port id="0" precision="FP32">
					<dim>1</dim>
					<dim>128</dim>
					<dim>64</dim>
					<dim>64</dim>
				</port>
			</input>
			<output>
				<port id="1" precision="FP32" names="661">
					<dim>1</dim>
					<dim>128</dim>
					<dim>64</dim>
					<dim>64</dim>
				</port>
			</output>
		</layer>
		<layer id="283" name="m0.b2_2.conv2.weight_compressed" type="Const" version="opset1">
			<data element_type="f16" shape="64, 128, 3, 3" offset="2356768" size="147456"/>
			<output>
				<port id="0" precision="FP16">
					<dim>64</dim>
					<dim>128</dim>
					<dim>3</dim>
					<dim>3</dim>
				</port>
			</output>
		</layer>
		<layer id="284" name="m0.b2_2.conv2.weight" type="Convert" version="opset1">
			<data destination_type="f32"/>
			<rt_info>
				<attribute name="decompression" version="0"/>
				<attribute name="fused_names" version="0" value="m0.b2_2.conv2.weight"/>
			</rt_info>
			<input>
				<port id="0" precision="FP16">
					<dim>64</dim>
					<dim>128</dim>
					<dim>3</dim>
					<dim>3</dim>
				</port>
			</input>
			<output>
				<port id="1" precision="FP32" names="m0.b2_2.conv2.weight">
					<dim>64</dim>
					<dim>128</dim>
					<dim>3</dim>
					<dim>3</dim>
				</port>
			</output>
		</layer>
		<layer id="285" name="662" type="Convolution" version="opset1">
			<data strides="1, 1" dilations="1, 1" pads_begin="1, 1" pads_end="1, 1" auto_pad="explicit"/>
			<rt_info>
				<attribute name="fused_names" version="0" value="662"/>
			</rt_info>
			<input>
				<port id="0" precision="FP32">
					<dim>1</dim>
					<dim>128</dim>
					<dim>64</dim>
					<dim>64</dim>
				</port>
				<port id="1" precision="FP32">
					<dim>64</dim>
					<dim>128</dim>
					<dim>3</dim>
					<dim>3</dim>
				</port>
			</input>
			<output>
				<port id="2" precision="FP32" names="662">
					<dim>1</dim>
					<dim>64</dim>
					<dim>64</dim>
					<dim>64</dim>
				</port>
			</output>
		</layer>
		<layer id="286" name="663" type="Const" version="opset1">
			<data element_type="i64" shape="3" offset="18944" size="24"/>
			<rt_info>
				<attribute name="fused_names" version="0" value="663"/>
			</rt_info>
			<output>
				<port id="0" precision="I64" names="663">
					<dim>3</dim>
				</port>
			</output>
		</layer>
		<layer id="287" name="664" type="Reshape" version="opset1">
			<data special_zero="true"/>
			<rt_info>
				<attribute name="fused_names" version="0" value="664"/>
			</rt_info>
			<input>
				<port id="0" precision="FP32">
					<dim>1</dim>
					<dim>64</dim>
					<dim>64</dim>
					<dim>64</dim>
				</port>
				<port id="1" precision="I64">
					<dim>3</dim>
				</port>
			</input>
			<output>
				<port id="2" precision="FP32" names="664">
					<dim>1</dim>
					<dim>32</dim>
					<dim>8192</dim>
				</port>
			</output>
		</layer>
		<layer id="288" name="Constant_2460" type="Const" version="opset1">
			<data element_type="i64" shape="1" offset="18968" size="8"/>
			<rt_info>
				<attribute name="fused_names" version="0" value="Constant_2460"/>
			</rt_info>
			<output>
				<port id="0" precision="I64">
					<dim>1</dim>
				</port>
			</output>
		</layer>
		<layer id="289" name="MVN_2461" type="MVN" version="opset6">
			<data eps="9.9999997473787516e-06" normalize_variance="true" eps_mode="INSIDE_SQRT"/>
			<rt_info>
				<attribute name="fused_names" version="0" value="667, Concat_2480, Concat_2525, MVN_2461, Multiply_2508, Reshape_2481, Reshape_2526"/>
			</rt_info>
			<input>
				<port id="0" precision="FP32">
					<dim>1</dim>
					<dim>32</dim>
					<dim>8192</dim>
				</port>
				<port id="1" precision="I64">
					<dim>1</dim>
				</port>
			</input>
			<output>
				<port id="2" precision="FP32" names="667">
					<dim>1</dim>
					<dim>32</dim>
					<dim>8192</dim>
				</port>
			</output>
		</layer>
		<layer id="290" name="668" type="ShapeOf" version="opset3">
			<data output_type="i64"/>
			<rt_info>
				<attribute name="fused_names" version="0" value="668"/>
			</rt_info>
			<input>
				<port id="0" precision="FP32">
					<dim>1</dim>
					<dim>64</dim>
					<dim>64</dim>
					<dim>64</dim>
				</port>
			</input>
			<output>
				<port id="1" precision="I64" names="668">
					<dim>4</dim>
				</port>
			</output>
		</layer>
		<layer id="291" name="669" type="Reshape" version="opset1">
			<data special_zero="true"/>
			<rt_info>
				<attribute name="fused_names" version="0" value="669"/>
			</rt_info>
			<input>
				<port id="0" precision="FP32">
					<dim>1</dim>
					<dim>32</dim>
					<dim>8192</dim>
				</port>
				<port id="1" precision="I64">
					<dim>4</dim>
				</port>
			</input>
			<output>
				<port id="2" precision="FP32" names="669">
					<dim>1</dim>
					<dim>64</dim>
					<dim>64</dim>
					<dim>64</dim>
				</port>
			</output>
		</layer>
		<layer id="292" name="Constant_30402_compressed" type="Const" version="opset1">
			<data element_type="f16" shape="1, 64, 1, 1" offset="2504224" size="128"/>
			<output>
				<port id="0" precision="FP16">
					<dim>1</dim>
					<dim>64</dim>
					<dim>1</dim>
					<dim>1</dim>
				</port>
			</output>
		</layer>
		<layer id="293" name="Constant_30402" type="Convert" version="opset1">
			<data destination_type="f32"/>
			<rt_info>
				<attribute name="decompression" version="0"/>
			</rt_info>
			<input>
				<port id="0" precision="FP16">
					<dim>1</dim>
					<dim>64</dim>
					<dim>1</dim>
					<dim>1</dim>
				</port>
			</input>
			<output>
				<port id="1" precision="FP32">
					<dim>1</dim>
					<dim>64</dim>
					<dim>1</dim>
					<dim>1</dim>
				</port>
			</output>
		</layer>
		<layer id="294" name="671" type="Multiply" version="opset1">
			<data auto_broadcast="numpy"/>
			<rt_info>
				<attribute name="fused_names" version="0" value="670, 671"/>
			</rt_info>
			<input>
				<port id="0" precision="FP32">
					<dim>1</dim>
					<dim>64</dim>
					<dim>64</dim>
					<dim>64</dim>
				</port>
				<port id="1" precision="FP32">
					<dim>1</dim>
					<dim>64</dim>
					<dim>1</dim>
					<dim>1</dim>
				</port>
			</input>
			<output>
				<port id="2" precision="FP32" names="671">
					<dim>1</dim>
					<dim>64</dim>
					<dim>64</dim>
					<dim>64</dim>
				</port>
			</output>
		</layer>
		<layer id="295" name="Constant_30403_compressed" type="Const" version="opset1">
			<data element_type="f16" shape="1, 64, 1, 1" offset="2504352" size="128"/>
			<output>
				<port id="0" precision="FP16">
					<dim>1</dim>
					<dim>64</dim>
					<dim>1</dim>
					<dim>1</dim>
				</port>
			</output>
		</layer>
		<layer id="296" name="Constant_30403" type="Convert" version="opset1">
			<data destination_type="f32"/>
			<rt_info>
				<attribute name="decompression" version="0"/>
			</rt_info>
			<input>
				<port id="0" precision="FP16">
					<dim>1</dim>
					<dim>64</dim>
					<dim>1</dim>
					<dim>1</dim>
				</port>
			</input>
			<output>
				<port id="1" precision="FP32">
					<dim>1</dim>
					<dim>64</dim>
					<dim>1</dim>
					<dim>1</dim>
				</port>
			</output>
		</layer>
		<layer id="297" name="673" type="Add" version="opset1">
			<data auto_broadcast="numpy"/>
			<rt_info>
				<attribute name="fused_names" version="0" value="672, 673"/>
			</rt_info>
			<input>
				<port id="0" precision="FP32">
					<dim>1</dim>
					<dim>64</dim>
					<dim>64</dim>
					<dim>64</dim>
				</port>
				<port id="1" precision="FP32">
					<dim>1</dim>
					<dim>64</dim>
					<dim>1</dim>
					<dim>1</dim>
				</port>
			</input>
			<output>
				<port id="2" precision="FP32" names="673">
					<dim>1</dim>
					<dim>64</dim>
					<dim>64</dim>
					<dim>64</dim>
				</port>
			</output>
		</layer>
		<layer id="298" name="674" type="ReLU" version="opset1">
			<rt_info>
				<attribute name="fused_names" version="0" value="674"/>
			</rt_info>
			<input>
				<port id="0" precision="FP32">
					<dim>1</dim>
					<dim>64</dim>
					<dim>64</dim>
					<dim>64</dim>
				</port>
			</input>
			<output>
				<port id="1" precision="FP32" names="674">
					<dim>1</dim>
					<dim>64</dim>
					<dim>64</dim>
					<dim>64</dim>
				</port>
			</output>
		</layer>
		<layer id="299" name="m0.b2_2.conv3.weight_compressed" type="Const" version="opset1">
			<data element_type="f16" shape="64, 64, 3, 3" offset="2504480" size="73728"/>
			<output>
				<port id="0" precision="FP16">
					<dim>64</dim>
					<dim>64</dim>
					<dim>3</dim>
					<dim>3</dim>
				</port>
			</output>
		</layer>
		<layer id="300" name="m0.b2_2.conv3.weight" type="Convert" version="opset1">
			<data destination_type="f32"/>
			<rt_info>
				<attribute name="decompression" version="0"/>
				<attribute name="fused_names" version="0" value="m0.b2_2.conv3.weight"/>
			</rt_info>
			<input>
				<port id="0" precision="FP16">
					<dim>64</dim>
					<dim>64</dim>
					<dim>3</dim>
					<dim>3</dim>
				</port>
			</input>
			<output>
				<port id="1" precision="FP32" names="m0.b2_2.conv3.weight">
					<dim>64</dim>
					<dim>64</dim>
					<dim>3</dim>
					<dim>3</dim>
				</port>
			</output>
		</layer>
		<layer id="301" name="675" type="Convolution" version="opset1">
			<data strides="1, 1" dilations="1, 1" pads_begin="1, 1" pads_end="1, 1" auto_pad="explicit"/>
			<rt_info>
				<attribute name="fused_names" version="0" value="675"/>
			</rt_info>
			<input>
				<port id="0" precision="FP32">
					<dim>1</dim>
					<dim>64</dim>
					<dim>64</dim>
					<dim>64</dim>
				</port>
				<port id="1" precision="FP32">
					<dim>64</dim>
					<dim>64</dim>
					<dim>3</dim>
					<dim>3</dim>
				</port>
			</input>
			<output>
				<port id="2" precision="FP32" names="675">
					<dim>1</dim>
					<dim>64</dim>
					<dim>64</dim>
					<dim>64</dim>
				</port>
			</output>
		</layer>
		<layer id="302" name="676" type="Concat" version="opset1">
			<data axis="1"/>
			<rt_info>
				<attribute name="fused_names" version="0" value="676"/>
			</rt_info>
			<input>
				<port id="0" precision="FP32">
					<dim>1</dim>
					<dim>128</dim>
					<dim>64</dim>
					<dim>64</dim>
				</port>
				<port id="1" precision="FP32">
					<dim>1</dim>
					<dim>64</dim>
					<dim>64</dim>
					<dim>64</dim>
				</port>
				<port id="2" precision="FP32">
					<dim>1</dim>
					<dim>64</dim>
					<dim>64</dim>
					<dim>64</dim>
				</port>
			</input>
			<output>
				<port id="3" precision="FP32" names="676">
					<dim>1</dim>
					<dim>256</dim>
					<dim>64</dim>
					<dim>64</dim>
				</port>
			</output>
		</layer>
		<layer id="303" name="677" type="Add" version="opset1">
			<data auto_broadcast="numpy"/>
			<rt_info>
				<attribute name="fused_names" version="0" value="677, 720"/>
			</rt_info>
			<input>
				<port id="0" precision="FP32">
					<dim>1</dim>
					<dim>256</dim>
					<dim>64</dim>
					<dim>64</dim>
				</port>
				<port id="1" precision="FP32">
					<dim>1</dim>
					<dim>256</dim>
					<dim>64</dim>
					<dim>64</dim>
				</port>
			</input>
			<output>
				<port id="2" precision="FP32" names="677,720">
					<dim>1</dim>
					<dim>256</dim>
					<dim>64</dim>
					<dim>64</dim>
				</port>
			</output>
		</layer>
		<layer id="304" name="678" type="Const" version="opset1">
			<data element_type="i64" shape="3" offset="18944" size="24"/>
			<rt_info>
				<attribute name="fused_names" version="0" value="678"/>
			</rt_info>
			<output>
				<port id="0" precision="I64" names="678">
					<dim>3</dim>
				</port>
			</output>
		</layer>
		<layer id="305" name="679" type="Reshape" version="opset1">
			<data special_zero="true"/>
			<rt_info>
				<attribute name="fused_names" version="0" value="679"/>
			</rt_info>
			<input>
				<port id="0" precision="FP32">
					<dim>1</dim>
					<dim>256</dim>
					<dim>64</dim>
					<dim>64</dim>
				</port>
				<port id="1" precision="I64">
					<dim>3</dim>
				</port>
			</input>
			<output>
				<port id="2" precision="FP32" names="679">
					<dim>1</dim>
					<dim>32</dim>
					<dim>32768</dim>
				</port>
			</output>
		</layer>
		<layer id="306" name="Constant_2581" type="Const" version="opset1">
			<data element_type="i64" shape="1" offset="18968" size="8"/>
…
		<edge from-layer="1399" from-port="0" to-layer="1400" to-port="1"/>
		<edge from-layer="1400" from-port="2" to-layer="1402" to-port="0"/>
		<edge from-layer="1401" from-port="1" to-layer="1402" to-port="1"/>
		<edge from-layer="1402" from-port="2" to-layer="1405" to-port="0"/>
		<edge from-layer="1403" from-port="0" to-layer="1404" to-port="0"/>
		<edge from-layer="1404" from-port="1" to-layer="1405" to-port="1"/>
		<edge from-layer="1405" from-port="2" to-layer="1408" to-port="0"/>
		<edge from-layer="1406" from-port="0" to-layer="1407" to-port="0"/>
		<edge from-layer="1407" from-port="1" to-layer="1408" to-port="1"/>
		<edge from-layer="1408" from-port="2" to-layer="1409" to-port="0"/>
		<edge from-layer="1409" from-port="1" to-layer="1412" to-port="0"/>
		<edge from-layer="1410" from-port="0" to-layer="1411" to-port="0"/>
		<edge from-layer="1411" from-port="1" to-layer="1412" to-port="1"/>
		<edge from-layer="1412" from-port="2" to-layer="1413" to-port="2"/>
		<edge from-layer="1413" from-port="3" to-layer="1414" to-port="0"/>
		<edge from-layer="1414" from-port="2" to-layer="1415" to-port="0"/>
		<edge from-layer="1414" from-port="2" to-layer="1420" to-port="0"/>
		<edge from-layer="1415" from-port="1" to-layer="1416" to-port="0"/>
		<edge from-layer="1416" from-port="1" to-layer="1418" to-port="0"/>
		<edge from-layer="1417" from-port="0" to-layer="1418" to-port="1"/>
		<edge from-layer="1417" from-port="0" to-layer="1420" to-port="2"/>
		<edge from-layer="1418" from-port="2" to-layer="1419" to-port="0"/>
		<edge from-layer="1419" from-port="1" to-layer="1420" to-port="1"/>
		<edge from-layer="1420" from-port="3" to-layer="1421" to-port="1"/>
		<edge from-layer="1421" from-port="2" to-layer="1423" to-port="0"/>
		<edge from-layer="1421" from-port="2" to-layer="1426" to-port="0"/>
		<edge from-layer="1421" from-port="2" to-layer="1471" to-port="1"/>
		<edge from-layer="1422" from-port="0" to-layer="1423" to-port="1"/>
		<edge from-layer="1423" from-port="2" to-layer="1425" to-port="0"/>
		<edge from-layer="1424" from-port="0" to-layer="1425" to-port="1"/>
		<edge from-layer="1425" from-port="2" to-layer="1427" to-port="0"/>
		<edge from-layer="1426" from-port="1" to-layer="1427" to-port="1"/>
		<edge from-layer="1427" from-port="2" to-layer="1430" to-port="0"/>
		<edge from-layer="1428" from-port="0" to-layer="1429" to-port="0"/>
		<edge from-layer="1429" from-port="1" to-layer="1430" to-port="1"/>
		<edge from-layer="1430" from-port="2" to-layer="1433" to-port="0"/>
		<edge from-layer="1431" from-port="0" to-layer="1432" to-port="0"/>
		<edge from-layer="1432" from-port="1" to-layer="1433" to-port="1"/>
		<edge from-layer="1433" from-port="2" to-layer="1434" to-port="0"/>
		<edge from-layer="1434" from-port="1" to-layer="1437" to-port="0"/>
		<edge from-layer="1435" from-port="0" to-layer="1436" to-port="0"/>
		<edge from-layer="1436" from-port="1" to-layer="1437" to-port="1"/>
		<edge from-layer="1437" from-port="2" to-layer="1439" to-port="0"/>
		<edge from-layer="1437" from-port="2" to-layer="1442" to-port="0"/>
		<edge from-layer="1437" from-port="2" to-layer="1470" to-port="0"/>
		<edge from-layer="1438" from-port="0" to-layer="1439" to-port="1"/>
		<edge from-layer="1439" from-port="2" to-layer="1441" to-port="0"/>
		<edge from-layer="1440" from-port="0" to-layer="1441" to-port="1"/>
		<edge from-layer="1441" from-port="2" to-layer="1443" to-port="0"/>
		<edge from-layer="1442" from-port="1" to-layer="1443" to-port="1"/>
		<edge from-layer="1443" from-port="2" to-layer="1446" to-port="0"/>
		<edge from-layer="1444" from-port="0" to-layer="1445" to-port="0"/>
		<edge from-layer="1445" from-port="1" to-layer="1446" to-port="1"/>
		<edge from-layer="1446" from-port="2" to-layer="1449" to-port="0"/>
		<edge from-layer="1447" from-port="0" to-layer="1448" to-port="0"/>
		<edge from-layer="1448" from-port="1" to-layer="1449" to-port="1"/>
		<edge from-layer="1449" from-port="2" to-layer="1450" to-port="0"/>
		<edge from-layer="1450" from-port="1" to-layer="1453" to-port="0"/>
		<edge from-layer="1451" from-port="0" to-layer="1452" to-port="0"/>
		<edge from-layer="1452" from-port="1" to-layer="1453" to-port="1"/>
		<edge from-layer="1453" from-port="2" to-layer="1455" to-port="0"/>
		<edge from-layer="1453" from-port="2" to-layer="1458" to-port="0"/>
		<edge from-layer="1453" from-port="2" to-layer="1470" to-port="1"/>
		<edge from-layer="1454" from-port="0" to-layer="1455" to-port="1"/>
		<edge from-layer="1455" from-port="2" to-layer="1457" to-port="0"/>
		<edge from-layer="1456" from-port="0" to-layer="1457" to-port="1"/>
		<edge from-layer="1457" from-port="2" to-layer="1459" to-port="0"/>
		<edge from-layer="1458" from-port="1" to-layer="1459" to-port="1"/>
		<edge from-layer="1459" from-port="2" to-layer="1462" to-port="0"/>
		<edge from-layer="1460" from-port="0" to-layer="1461" to-port="0"/>
		<edge from-layer="1461" from-port="1" to-layer="1462" to-port="1"/>
		<edge from-layer="1462" from-port="2" to-layer="1465" to-port="0"/>
		<edge from-layer="1463" from-port="0" to-layer="1464" to-port="0"/>
		<edge from-layer="1464" from-port="1" to-layer="1465" to-port="1"/>
		<edge from-layer="1465" from-port="2" to-layer="1466" to-port="0"/>
		<edge from-layer="1466" from-port="1" to-layer="1469" to-port="0"/>
		<edge from-layer="1467" from-port="0" to-layer="1468" to-port="0"/>
		<edge from-layer="1468" from-port="1" to-layer="1469" to-port="1"/>
		<edge from-layer="1469" from-port="2" to-layer="1470" to-port="2"/>
		<edge from-layer="1470" from-port="3" to-layer="1471" to-port="0"/>
		<edge from-layer="1471" from-port="2" to-layer="1472" to-port="0"/>
		<edge from-layer="1471" from-port="2" to-layer="1477" to-port="0"/>
		<edge from-layer="1472" from-port="1" to-layer="1473" to-port="0"/>
		<edge from-layer="1473" from-port="1" to-layer="1475" to-port="0"/>
		<edge from-layer="1474" from-port="0" to-layer="1475" to-port="1"/>
		<edge from-layer="1474" from-port="0" to-layer="1477" to-port="2"/>
		<edge from-layer="1475" from-port="2" to-layer="1476" to-port="0"/>
		<edge from-layer="1476" from-port="1" to-layer="1477" to-port="1"/>
		<edge from-layer="1477" from-port="3" to-layer="1478" to-port="1"/>
		<edge from-layer="1478" from-port="2" to-layer="1480" to-port="0"/>
		<edge from-layer="1478" from-port="2" to-layer="1483" to-port="0"/>
		<edge from-layer="1478" from-port="2" to-layer="1528" to-port="1"/>
		<edge from-layer="1479" from-port="0" to-layer="1480" to-port="1"/>
		<edge from-layer="1480" from-port="2" to-layer="1482" to-port="0"/>
		<edge from-layer="1481" from-port="0" to-layer="1482" to-port="1"/>
		<edge from-layer="1482" from-port="2" to-layer="1484" to-port="0"/>
		<edge from-layer="1483" from-port="1" to-layer="1484" to-port="1"/>
		<edge from-layer="1484" from-port="2" to-layer="1487" to-port="0"/>
		<edge from-layer="1485" from-port="0" to-layer="1486" to-port="0"/>
		<edge from-layer="1486" from-port="1" to-layer="1487" to-port="1"/>
		<edge from-layer="1487" from-port="2" to-layer="1490" to-port="0"/>
		<edge from-layer="1488" from-port="0" to-layer="1489" to-port="0"/>
		<edge from-layer="1489" from-port="1" to-layer="1490" to-port="1"/>
		<edge from-layer="1490" from-port="2" to-layer="1491" to-port="0"/>
		<edge from-layer="1491" from-port="1" to-layer="1494" to-port="0"/>
		<edge from-layer="1492" from-port="0" to-layer="1493" to-port="0"/>
		<edge from-layer="1493" from-port="1" to-layer="1494" to-port="1"/>
		<edge from-layer="1494" from-port="2" to-layer="1496" to-port="0"/>
		<edge from-layer="1494" from-port="2" to-layer="1499" to-port="0"/>
		<edge from-layer="1494" from-port="2" to-layer="1527" to-port="0"/>
		<edge from-layer="1495" from-port="0" to-layer="1496" to-port="1"/>
		<edge from-layer="1496" from-port="2" to-layer="1498" to-port="0"/>
		<edge from-layer="1497" from-port="0" to-layer="1498" to-port="1"/>
		<edge from-layer="1498" from-port="2" to-layer="1500" to-port="0"/>
		<edge from-layer="1499" from-port="1" to-layer="1500" to-port="1"/>
		<edge from-layer="1500" from-port="2" to-layer="1503" to-port="0"/>
		<edge from-layer="1501" from-port="0" to-layer="1502" to-port="0"/>
		<edge from-layer="1502" from-port="1" to-layer="1503" to-port="1"/>
		<edge from-layer="1503" from-port="2" to-layer="1506" to-port="0"/>
		<edge from-layer="1504" from-port="0" to-layer="1505" to-port="0"/>
		<edge from-layer="1505" from-port="1" to-layer="1506" to-port="1"/>
		<edge from-layer="1506" from-port="2" to-layer="1507" to-port="0"/>
		<edge from-layer="1507" from-port="1" to-layer="1510" to-port="0"/>
		<edge from-layer="1508" from-port="0" to-layer="1509" to-port="0"/>
		<edge from-layer="1509" from-port="1" to-layer="1510" to-port="1"/>
		<edge from-layer="1510" from-port="2" to-layer="1512" to-port="0"/>
		<edge from-layer="1510" from-port="2" to-layer="1515" to-port="0"/>
		<edge from-layer="1510" from-port="2" to-layer="1527" to-port="1"/>
		<edge from-layer="1511" from-port="0" to-layer="1512" to-port="1"/>
		<edge from-layer="1512" from-port="2" to-layer="1514" to-port="0"/>
		<edge from-layer="1513" from-port="0" to-layer="1514" to-port="1"/>
		<edge from-layer="1514" from-port="2" to-layer="1516" to-port="0"/>
		<edge from-layer="1515" from-port="1" to-layer="1516" to-port="1"/>
		<edge from-layer="1516" from-port="2" to-layer="1519" to-port="0"/>
		<edge from-layer="1517" from-port="0" to-layer="1518" to-port="0"/>
		<edge from-layer="1518" from-port="1" to-layer="1519" to-port="1"/>
		<edge from-layer="1519" from-port="2" to-layer="1522" to-port="0"/>
		<edge from-layer="1520" from-port="0" to-layer="1521" to-port="0"/>
		<edge from-layer="1521" from-port="1" to-layer="1522" to-port="1"/>
		<edge from-layer="1522" from-port="2" to-layer="1523" to-port="0"/>
		<edge from-layer="1523" from-port="1" to-layer="1526" to-port="0"/>
		<edge from-layer="1524" from-port="0" to-layer="1525" to-port="0"/>
		<edge from-layer="1525" from-port="1" to-layer="1526" to-port="1"/>
		<edge from-layer="1526" from-port="2" to-layer="1527" to-port="2"/>
		<edge from-layer="1527" from-port="3" to-layer="1528" to-port="0"/>
		<edge from-layer="1528" from-port="2" to-layer="1531" to-port="0"/>
		<edge from-layer="1529" from-port="0" to-layer="1530" to-port="0"/>
		<edge from-layer="1530" from-port="1" to-layer="1531" to-port="1"/>
		<edge from-layer="1531" from-port="2" to-layer="1534" to-port="0"/>
		<edge from-layer="1532" from-port="0" to-layer="1533" to-port="0"/>
		<edge from-layer="1533" from-port="1" to-layer="1534" to-port="1"/>
		<edge from-layer="1534" from-port="2" to-layer="1536" to-port="0"/>
		<edge from-layer="1534" from-port="2" to-layer="1539" to-port="0"/>
		<edge from-layer="1535" from-port="0" to-layer="1536" to-port="1"/>
		<edge from-layer="1536" from-port="2" to-layer="1538" to-port="0"/>
		<edge from-layer="1537" from-port="0" to-layer="1538" to-port="1"/>
		<edge from-layer="1538" from-port="2" to-layer="1540" to-port="0"/>
		<edge from-layer="1539" from-port="1" to-layer="1540" to-port="1"/>
		<edge from-layer="1540" from-port="2" to-layer="1543" to-port="0"/>
		<edge from-layer="1541" from-port="0" to-layer="1542" to-port="0"/>
		<edge from-layer="1542" from-port="1" to-layer="1543" to-port="1"/>
		<edge from-layer="1543" from-port="2" to-layer="1546" to-port="0"/>
		<edge from-layer="1544" from-port="0" to-layer="1545" to-port="0"/>
		<edge from-layer="1545" from-port="1" to-layer="1546" to-port="1"/>
		<edge from-layer="1546" from-port="2" to-layer="1547" to-port="0"/>
		<edge from-layer="1547" from-port="1" to-layer="1550" to-port="0"/>
		<edge from-layer="1547" from-port="1" to-layer="1557" to-port="0"/>
		<edge from-layer="1548" from-port="0" to-layer="1549" to-port="0"/>
		<edge from-layer="1549" from-port="1" to-layer="1550" to-port="1"/>
		<edge from-layer="1550" from-port="2" to-layer="1553" to-port="0"/>
		<edge from-layer="1551" from-port="0" to-layer="1552" to-port="0"/>
		<edge from-layer="1552" from-port="1" to-layer="1553" to-port="1"/>
		<edge from-layer="1553" from-port="2" to-layer="1554" to-port="1"/>
		<edge from-layer="1554" from-port="2" to-layer="1567" to-port="0"/>
		<edge from-layer="1555" from-port="0" to-layer="1556" to-port="0"/>
		<edge from-layer="1556" from-port="1" to-layer="1557" to-port="1"/>
		<edge from-layer="1557" from-port="2" to-layer="1560" to-port="0"/>
		<edge from-layer="1558" from-port="0" to-layer="1559" to-port="0"/>
		<edge from-layer="1559" from-port="1" to-layer="1560" to-port="1"/>
		<edge from-layer="1560" from-port="2" to-layer="2010" to-port="0"/>
		<edge from-layer="1560" from-port="2" to-layer="1563" to-port="0"/>
		<edge from-layer="1561" from-port="0" to-layer="1562" to-port="0"/>
		<edge from-layer="1562" from-port="1" to-layer="1563" to-port="1"/>
		<edge from-layer="1563" from-port="2" to-layer="1566" to-port="0"/>
		<edge from-layer="1564" from-port="0" to-layer="1565" to-port="0"/>
		<edge from-layer="1565" from-port="1" to-layer="1566" to-port="1"/>
		<edge from-layer="1566" from-port="2" to-layer="1567" to-port="1"/>
		<edge from-layer="1567" from-port="2" to-layer="1569" to-port="0"/>
		<edge from-layer="1567" from-port="2" to-layer="1572" to-port="0"/>
		<edge from-layer="1567" from-port="2" to-layer="1617" to-port="1"/>
		<edge from-layer="1567" from-port="2" to-layer="1618" to-port="0"/>
		<edge from-layer="1568" from-port="0" to-layer="1569" to-port="1"/>
		<edge from-layer="1569" from-port="2" to-layer="1571" to-port="0"/>
		<edge from-layer="1570" from-port="0" to-layer="1571" to-port="1"/>
		<edge from-layer="1571" from-port="2" to-layer="1573" to-port="0"/>
		<edge from-layer="1572" from-port="1" to-layer="1573" to-port="1"/>
		<edge from-layer="1573" from-port="2" to-layer="1576" to-port="0"/>
		<edge from-layer="1574" from-port="0" to-layer="1575" to-port="0"/>
		<edge from-layer="1575" from-port="1" to-layer="1576" to-port="1"/>
		<edge from-layer="1576" from-port="2" to-layer="1579" to-port="0"/>
		<edge from-layer="1577" from-port="0" to-layer="1578" to-port="0"/>
		<edge from-layer="1578" from-port="1" to-layer="1579" to-port="1"/>
		<edge from-layer="1579" from-port="2" to-layer="1580" to-port="0"/>
		<edge from-layer="1580" from-port="1" to-layer="1583" to-port="0"/>
		<edge from-layer="1581" from-port="0" to-layer="1582" to-port="0"/>
		<edge from-layer="1582" from-port="1" to-layer="1583" to-port="1"/>
		<edge from-layer="1583" from-port="2" to-layer="1585" to-port="0"/>
		<edge from-layer="1583" from-port="2" to-layer="1588" to-port="0"/>
		<edge from-layer="1583" from-port="2" to-layer="1616" to-port="0"/>
		<edge from-layer="1584" from-port="0" to-layer="1585" to-port="1"/>
		<edge from-layer="1585" from-port="2" to-layer="1587" to-port="0"/>
		<edge from-layer="1586" from-port="0" to-layer="1587" to-port="1"/>
		<edge from-layer="1587" from-port="2" to-layer="1589" to-port="0"/>
		<edge from-layer="1588" from-port="1" to-layer="1589" to-port="1"/>
		<edge from-layer="1589" from-port="2" to-layer="1592" to-port="0"/>
		<edge from-layer="1590" from-port="0" to-layer="1591" to-port="0"/>
		<edge from-layer="1591" from-port="1" to-layer="1592" to-port="1"/>
		<edge from-layer="1592" from-port="2" to-layer="1595" to-port="0"/>
		<edge from-layer="1593" from-port="0" to-layer="1594" to-port="0"/>
		<edge from-layer="1594" from-port="1" to-layer="1595" to-port="1"/>
		<edge from-layer="1595" from-port="2" to-layer="1596" to-port="0"/>
		<edge from-layer="1596" from-port="1" to-layer="1599" to-port="0"/>
		<edge from-layer="1597" from-port="0" to-layer="1598" to-port="0"/>
		<edge from-layer="1598" from-port="1" to-layer="1599" to-port="1"/>
		<edge from-layer="1599" from-port="2" to-layer="1601" to-port="0"/>
		<edge from-layer="1599" from-port="2" to-layer="1604" to-port="0"/>
		<edge from-layer="1599" from-port="2" to-layer="1616" to-port="1"/>
		<edge from-layer="1600" from-port="0" to-layer="1601" to-port="1"/>
		<edge from-layer="1601" from-port="2" to-layer="1603" to-port="0"/>
		<edge from-layer="1602" from-port="0" to-layer="1603" to-port="1"/>
		<edge from-layer="1603" from-port="2" to-layer="1605" to-port="0"/>
		<edge from-layer="1604" from-port="1" to-layer="1605" to-port="1"/>
		<edge from-layer="1605" from-port="2" to-layer="1608" to-port="0"/>
		<edge from-layer="1606" from-port="0" to-layer="1607" to-port="0"/>
		<edge from-layer="1607" from-port="1" to-layer="1608" to-port="1"/>
		<edge from-layer="1608" from-port="2" to-layer="1611" to-port="0"/>
		<edge from-layer="1609" from-port="0" to-layer="1610" to-port="0"/>
		<edge from-layer="1610" from-port="1" to-layer="1611" to-port="1"/>
		<edge from-layer="1611" from-port="2" to-layer="1612" to-port="0"/>
		<edge from-layer="1612" from-port="1" to-layer="1615" to-port="0"/>
		<edge from-layer="1613" from-port="0" to-layer="1614" to-port="0"/>
		<edge from-layer="1614" from-port="1" to-layer="1615" to-port="1"/>
		<edge from-layer="1615" from-port="2" to-layer="1616" to-port="2"/>
		<edge from-layer="1616" from-port="3" to-layer="1617" to-port="0"/>
		<edge from-layer="1617" from-port="2" to-layer="1933" to-port="0"/>
		<edge from-layer="1618" from-port="1" to-layer="1620" to-port="0"/>
		<edge from-layer="1618" from-port="1" to-layer="1623" to-port="0"/>
		<edge from-layer="1618" from-port="1" to-layer="1668" to-port="1"/>
		<edge from-layer="1619" from-port="0" to-layer="1620" to-port="1"/>
		<edge from-layer="1620" from-port="2" to-layer="1622" to-port="0"/>
		<edge from-layer="1621" from-port="0" to-layer="1622" to-port="1"/>
		<edge from-layer="1622" from-port="2" to-layer="1624" to-port="0"/>
		<edge from-layer="1623" from-port="1" to-layer="1624" to-port="1"/>
		<edge from-layer="1624" from-port="2" to-layer="1627" to-port="0"/>
		<edge from-layer="1625" from-port="0" to-layer="1626" to-port="0"/>
		<edge from-layer="1626" from-port="1" to-layer="1627" to-port="1"/>
		<edge from-layer="1627" from-port="2" to-layer="1630" to-port="0"/>
		<edge from-layer="1628" from-port="0" to-layer="1629" to-port="0"/>
		<edge from-layer="1629" from-port="1" to-layer="1630" to-port="1"/>
		<edge from-layer="1630" from-port="2" to-layer="1631" to-port="0"/>
		<edge from-layer="1631" from-port="1" to-layer="1634" to-port="0"/>
		<edge from-layer="1632" from-port="0" to-layer="1633" to-port="0"/>
		<edge from-layer="1633" from-port="1" to-layer="1634" to-port="1"/>
		<edge from-layer="1634" from-port="2" to-layer="1636" to-port="0"/>
		<edge from-layer="1634" from-port="2" to-layer="1639" to-port="0"/>
		<edge from-layer="1634" from-port="2" to-layer="1667" to-port="0"/>
		<edge from-layer="1635" from-port="0" to-layer="1636" to-port="1"/>
		<edge from-layer="1636" from-port="2" to-layer="1638" to-port="0"/>
		<edge from-layer="1637" from-port="0" to-layer="1638" to-port="1"/>
		<edge from-layer="1638" from-port="2" to-layer="1640" to-port="0"/>
		<edge from-layer="1639" from-port="1" to-layer="1640" to-port="1"/>
		<edge from-layer="1640" from-port="2" to-layer="1643" to-port="0"/>
		<edge from-layer="1641" from-port="0" to-layer="1642" to-port="0"/>
		<edge from-layer="1642" from-port="1" to-layer="1643" to-port="1"/>
		<edge from-layer="1643" from-port="2" to-layer="1646" to-port="0"/>
		<edge from-layer="1644" from-port="0" to-layer="1645" to-port="0"/>
		<edge from-layer="1645" from-port="1" to-layer="1646" to-port="1"/>
		<edge from-layer="1646" from-port="2" to-layer="1647" to-port="0"/>
		<edge from-layer="1647" from-port="1" to-layer="1650" to-port="0"/>
		<edge from-layer="1648" from-port="0" to-layer="1649" to-port="0"/>
		<edge from-layer="1649" from-port="1" to-layer="1650" to-port="1"/>
		<edge from-layer="1650" from-port="2" to-layer="1652" to-port="0"/>
		<edge from-layer="1650" from-port="2" to-layer="1655" to-port="0"/>
		<edge from-layer="1650" from-port="2" to-layer="1667" to-port="1"/>
		<edge from-layer="1651" from-port="0" to-layer="1652" to-port="1"/>
		<edge from-layer="1652" from-port="2" to-layer="1654" to-port="0"/>
		<edge from-layer="1653" from-port="0" to-layer="1654" to-port="1"/>
		<edge from-layer="1654" from-port="2" to-layer="1656" to-port="0"/>
		<edge from-layer="1655" from-port="1" to-layer="1656" to-port="1"/>
		<edge from-layer="1656" from-port="2" to-layer="1659" to-port="0"/>
		<edge from-layer="1657" from-port="0" to-layer="1658" to-port="0"/>
		<edge from-layer="1658" from-port="1" to-layer="1659" to-port="1"/>
		<edge from-layer="1659" from-port="2" to-layer="1662" to-port="0"/>
		<edge from-layer="1660" from-port="0" to-layer="1661" to-port="0"/>
		<edge from-layer="1661" from-port="1" to-layer="1662" to-port="1"/>
		<edge from-layer="1662" from-port="2" to-layer="1663" to-port="0"/>
		<edge from-layer="1663" from-port="1" to-layer="1666" to-port="0"/>
		<edge from-layer="1664" from-port="0" to-layer="1665" to-port="0"/>
		<edge from-layer="1665" from-port="1" to-layer="1666" to-port="1"/>
		<edge from-layer="1666" from-port="2" to-layer="1667" to-port="2"/>
		<edge from-layer="1667" from-port="3" to-layer="1668" to-port="0"/>
		<edge from-layer="1668" from-port="2" to-layer="1718" to-port="1"/>
		<edge from-layer="1668" from-port="2" to-layer="1719" to-port="0"/>
		<edge from-layer="1668" from-port="2" to-layer="1670" to-port="0"/>
		<edge from-layer="1668" from-port="2" to-layer="1673" to-port="0"/>
		<edge from-layer="1669" from-port="0" to-layer="1670" to-port="1"/>
		<edge from-layer="1670" from-port="2" to-layer="1672" to-port="0"/>
		<edge from-layer="1671" from-port="0" to-layer="1672" to-port="1"/>
		<edge from-layer="1672" from-port="2" to-layer="1674" to-port="0"/>
		<edge from-layer="1673" from-port="1" to-layer="1674" to-port="1"/>
		<edge from-layer="1674" from-port="2" to-layer="1677" to-port="0"/>
		<edge from-layer="1675" from-port="0" to-layer="1676" to-port="0"/>
		<edge from-layer="1676" from-port="1" to-layer="1677" to-port="1"/>
		<edge from-layer="1677" from-port="2" to-layer="1680" to-port="0"/>
		<edge from-layer="1678" from-port="0" to-layer="1679" to-port="0"/>
		<edge from-layer="1679" from-port="1" to-layer="1680" to-port="1"/>
		<edge from-layer="1680" from-port="2" to-layer="1681" to-port="0"/>
		<edge from-layer="1681" from-port="1" to-layer="1684" to-port="0"/>
		<edge from-layer="1682" from-port="0" to-layer="1683" to-port="0"/>
		<edge from-layer="1683" from-port="1" to-layer="1684" to-port="1"/>
		<edge from-layer="1684" from-port="2" to-layer="1717" to-port="0"/>
		<edge from-layer="1684" from-port="2" to-layer="1686" to-port="0"/>
		<edge from-layer="1684" from-port="2" to-layer="1689" to-port="0"/>
		<edge from-layer="1685" from-port="0" to-layer="1686" to-port="1"/>
		<edge from-layer="1686" from-port="2" to-layer="1688" to-port="0"/>
		<edge from-layer="1687" from-port="0" to-layer="1688" to-port="1"/>
		<edge from-layer="1688" from-port="2" to-layer="1690" to-port="0"/>
		<edge from-layer="1689" from-port="1" to-layer="1690" to-port="1"/>
		<edge from-layer="1690" from-port="2" to-layer="1693" to-port="0"/>
		<edge from-layer="1691" from-port="0" to-layer="1692" to-port="0"/>
		<edge from-layer="1692" from-port="1" to-layer="1693" to-port="1"/>
		<edge from-layer="1693" from-port="2" to-layer="1696" to-port="0"/>
		<edge from-layer="1694" from-port="0" to-layer="1695" to-port="0"/>
		<edge from-layer="1695" from-port="1" to-layer="1696" to-port="1"/>
		<edge from-layer="1696" from-port="2" to-layer="1697" to-port="0"/>
		<edge from-layer="1697" from-port="1" to-layer="1700" to-port="0"/>
		<edge from-layer="1698" from-port="0" to-layer="1699" to-port="0"/>
		<edge from-layer="1699" from-port="1" to-layer="1700" to-port="1"/>
		<edge from-layer="1700" from-port="2" to-layer="1702" to-port="0"/>
		<edge from-layer="1700" from-port="2" to-layer="1705" to-port="0"/>
		<edge from-layer="1700" from-port="2" to-layer="1717" to-port="1"/>
		<edge from-layer="1701" from-port="0" to-layer="1702" to-port="1"/>
		<edge from-layer="1702" from-port="2" to-layer="1704" to-port="0"/>
		<edge from-layer="1703" from-port="0" to-layer="1704" to-port="1"/>
		<edge from-layer="1704" from-port="2" to-layer="1706" to-port="0"/>
		<edge from-layer="1705" from-port="1" to-layer="1706" to-port="1"/>
		<edge from-layer="1706" from-port="2" to-layer="1709" to-port="0"/>
		<edge from-layer="1707" from-port="0" to-layer="1708" to-port="0"/>
		<edge from-layer="1708" from-port="1" to-layer="1709" to-port="1"/>
		<edge from-layer="1709" from-port="2" to-layer="1712" to-port="0"/>
		<edge from-layer="1710" from-port="0" to-layer="1711" to-port="0"/>
		<edge from-layer="1711" from-port="1" to-layer="1712" to-port="1"/>
		<edge from-layer="1712" from-port="2" to-layer="1713" to-port="0"/>
		<edge from-layer="1713" from-port="1" to-layer="1716" to-port="0"/>
		<edge from-layer="1714" from-port="0" to-layer="1715" to-port="0"/>
		<edge from-layer="1715" from-port="1" to-layer="1716" to-port="1"/>
		<edge from-layer="1716" from-port="2" to-layer="1717" to-port="2"/>
		<edge from-layer="1717" from-port="3" to-layer="1718" to-port="0"/>
		<edge from-layer="1718" from-port="2" to-layer="1876" to-port="0"/>
		<edge from-layer="1719" from-port="1" to-layer="1721" to-port="0"/>
		<edge from-layer="1719" from-port="1" to-layer="1724" to-port="0"/>
		<edge from-layer="1719" from-port="1" to-layer="1769" to-port="1"/>
		<edge from-layer="1720" from-port="0" to-layer="1721" to-port="1"/>
		<edge from-layer="1721" from-port="2" to-layer="1723" to-port="0"/>
		<edge from-layer="1722" from-port="0" to-layer="1723" to-port="1"/>
		<edge from-layer="1723" from-port="2" to-layer="1725" to-port="0"/>
		<edge from-layer="1724" from-port="1" to-layer="1725" to-port="1"/>
		<edge from-layer="1725" from-port="2" to-layer="1728" to-port="0"/>
		<edge from-layer="1726" from-port="0" to-layer="1727" to-port="0"/>
		<edge from-layer="1727" from-port="1" to-layer="1728" to-port="1"/>
		<edge from-layer="1728" from-port="2" to-layer="1731" to-port="0"/>
		<edge from-layer="1729" from-port="0" to-layer="1730" to-port="0"/>
		<edge from-layer="1730" from-port="1" to-layer="1731" to-port="1"/>
		<edge from-layer="1731" from-port="2" to-layer="1732" to-port="0"/>
		<edge from-layer="1732" from-port="1" to-layer="1735" to-port="0"/>
		<edge from-layer="1733" from-port="0" to-layer="1734" to-port="0"/>
		<edge from-layer="1734" from-port="1" to-layer="1735" to-port="1"/>
		<edge from-layer="1735" from-port="2" to-layer="1737" to-port="0"/>
		<edge from-layer="1735" from-port="2" to-layer="1740" to-port="0"/>
		<edge from-layer="1735" from-port="2" to-layer="1768" to-port="0"/>
		<edge from-layer="1736" from-port="0" to-layer="1737" to-port="1"/>
		<edge from-layer="1737" from-port="2" to-layer="1739" to-port="0"/>
		<edge from-layer="1738" from-port="0" to-layer="1739" to-port="1"/>
		<edge from-layer="1739" from-port="2" to-layer="1741" to-port="0"/>
		<edge from-layer="1740" from-port="1" to-layer="1741" to-port="1"/>
		<edge from-layer="1741" from-port="2" to-layer="1744" to-port="0"/>
		<edge from-layer="1742" from-port="0" to-layer="1743" to-port="0"/>
		<edge from-layer="1743" from-port="1" to-layer="1744" to-port="1"/>
		<edge from-layer="1744" from-port="2" to-layer="1747" to-port="0"/>
		<edge from-layer="1745" from-port="0" to-layer="1746" to-port="0"/>
		<edge from-layer="1746" from-port="1" to-layer="1747" to-port="1"/>
		<edge from-layer="1747" from-port="2" to-layer="1748" to-port="0"/>
		<edge from-layer="1748" from-port="1" to-layer="1751" to-port="0"/>
		<edge from-layer="1749" from-port="0" to-layer="1750" to-port="0"/>
		<edge from-layer="1750" from-port="1" to-layer="1751" to-port="1"/>
		<edge from-layer="1751" from-port="2" to-layer="1753" to-port="0"/>
		<edge from-layer="1751" from-port="2" to-layer="1756" to-port="0"/>
		<edge from-layer="1751" from-port="2" to-layer="1768" to-port="1"/>
		<edge from-layer="1752" from-port="0" to-layer="1753" to-port="1"/>
		<edge from-layer="1753" from-port="2" to-layer="1755" to-port="0"/>
		<edge from-layer="1754" from-port="0" to-layer="1755" to-port="1"/>
		<edge from-layer="1755" from-port="2" to-layer="1757" to-port="0"/>
		<edge from-layer="1756" from-port="1" to-layer="1757" to-port="1"/>
		<edge from-layer="1757" from-port="2" to-layer="1760" to-port="0"/>
		<edge from-layer="1758" from-port="0" to-layer="1759" to-port="0"/>
		<edge from-layer="1759" from-port="1" to-layer="1760" to-port="1"/>
		<edge from-layer="1760" from-port="2" to-layer="1763" to-port="0"/>
		<edge from-layer="1761" from-port="0" to-layer="1762" to-port="0"/>
		<edge from-layer="1762" from-port="1" to-layer="1763" to-port="1"/>
		<edge from-layer="1763" from-port="2" to-layer="1764" to-port="0"/>
		<edge from-layer="1764" from-port="1" to-layer="1767" to-port="0"/>
		<edge from-layer="1765" from-port="0" to-layer="1766" to-port="0"/>
		<edge from-layer="1766" from-port="1" to-layer="1767" to-port="1"/>
		<edge from-layer="1767" from-port="2" to-layer="1768" to-port="2"/>
		<edge from-layer="1768" from-port="3" to-layer="1769" to-port="0"/>
		<edge from-layer="1769" from-port="2" to-layer="1771" to-port="0"/>
		<edge from-layer="1769" from-port="2" to-layer="1774" to-port="0"/>
		<edge from-layer="1769" from-port="2" to-layer="1819" to-port="1"/>
		<edge from-layer="1770" from-port="0" to-layer="1771" to-port="1"/>
		<edge from-layer="1771" from-port="2" to-layer="1773" to-port="0"/>
		<edge from-layer="1772" from-port="0" to-layer="1773" to-port="1"/>
		<edge from-layer="1773" from-port="2" to-layer="1775" to-port="0"/>
		<edge from-layer="1774" from-port="1" to-layer="1775" to-port="1"/>
		<edge from-layer="1775" from-port="2" to-layer="1778" to-port="0"/>
		<edge from-layer="1776" from-port="0" to-layer="1777" to-port="0"/>
		<edge from-layer="1777" from-port="1" to-layer="1778" to-port="1"/>
		<edge from-layer="1778" from-port="2" to-layer="1781" to-port="0"/>
		<edge from-layer="1779" from-port="0" to-layer="1780" to-port="0"/>
		<edge from-layer="1780" from-port="1" to-layer="1781" to-port="1"/>
		<edge from-layer="1781" from-port="2" to-layer="1782" to-port="0"/>
		<edge from-layer="1782" from-port="1" to-layer="1785" to-port="0"/>
		<edge from-layer="1783" from-port="0" to-layer="1784" to-port="0"/>
		<edge from-layer="1784" from-port="1" to-layer="1785" to-port="1"/>
		<edge from-layer="1785" from-port="2" to-layer="1787" to-port="0"/>
		<edge from-layer="1785" from-port="2" to-layer="1790" to-port="0"/>
		<edge from-layer="1785" from-port="2" to-layer="1818" to-port="0"/>
		<edge from-layer="1786" from-port="0" to-layer="1787" to-port="1"/>
		<edge from-layer="1787" from-port="2" to-layer="1789" to-port="0"/>
		<edge from-layer="1788" from-port="0" to-layer="1789" to-port="1"/>
		<edge from-layer="1789" from-port="2" to-layer="1791" to-port="0"/>
		<edge from-layer="1790" from-port="1" to-layer="1791" to-port="1"/>
		<edge from-layer="1791" from-port="2" to-layer="1794" to-port="0"/>
		<edge from-layer="1792" from-port="0" to-layer="1793" to-port="0"/>
		<edge from-layer="1793" from-port="1" to-layer="1794" to-port="1"/>
		<edge from-layer="1794" from-port="2" to-layer="1797" to-port="0"/>
		<edge from-layer="1795" from-port="0" to-layer="1796" to-port="0"/>
		<edge from-layer="1796" from-port="1" to-layer="1797" to-port="1"/>
		<edge from-layer="1797" from-port="2" to-layer="1798" to-port="0"/>
		<edge from-layer="1798" from-port="1" to-layer="1801" to-port="0"/>
		<edge from-layer="1799" from-port="0" to-layer="1800" to-port="0"/>
		<edge from-layer="1800" from-port="1" to-layer="1801" to-port="1"/>
		<edge from-layer="1801" from-port="2" to-layer="1803" to-port="0"/>
		<edge from-layer="1801" from-port="2" to-layer="1806" to-port="0"/>
		<edge from-layer="1801" from-port="2" to-layer="1818" to-port="1"/>
		<edge from-layer="1802" from-port="0" to-layer="1803" to-port="1"/>
		<edge from-layer="1803" from-port="2" to-layer="1805" to-port="0"/>
		<edge from-layer="1804" from-port="0" to-layer="1805" to-port="1"/>
		<edge from-layer="1805" from-port="2" to-layer="1807" to-port="0"/>
		<edge from-layer="1806" from-port="1" to-layer="1807" to-port="1"/>
		<edge from-layer="1807" from-port="2" to-layer="1810" to-port="0"/>
		<edge from-layer="1808" from-port="0" to-layer="1809" to-port="0"/>
		<edge from-layer="1809" from-port="1" to-layer="1810" to-port="1"/>
		<edge from-layer="1810" from-port="2" to-layer="1813" to-port="0"/>
		<edge from-layer="1811" from-port="0" to-layer="1812" to-port="0"/>
		<edge from-layer="1812" from-port="1" to-layer="1813" to-port="1"/>
		<edge from-layer="1813" from-port="2" to-layer="1814" to-port="0"/>
		<edge from-layer="1814" from-port="1" to-layer="1817" to-port="0"/>
		<edge from-layer="1815" from-port="0" to-layer="1816" to-port="0"/>
		<edge from-layer="1816" from-port="1" to-layer="1817" to-port="1"/>
		<edge from-layer="1817" from-port="2" to-layer="1818" to-port="2"/>
		<edge from-layer="1818" from-port="3" to-layer="1819" to-port="0"/>
		<edge from-layer="1819" from-port="2" to-layer="1821" to-port="0"/>
		<edge from-layer="1819" from-port="2" to-layer="1824" to-port="0"/>
		<edge from-layer="1819" from-port="2" to-layer="1869" to-port="1"/>
		<edge from-layer="1820" from-port="0" to-layer="1821" to-port="1"/>
		<edge from-layer="1821" from-port="2" to-layer="1823" to-port="0"/>
		<edge from-layer="1822" from-port="0" to-layer="1823" to-port="1"/>
		<edge from-layer="1823" from-port="2" to-layer="1825" to-port="0"/>
		<edge from-layer="1824" from-port="1" to-layer="1825" to-port="1"/>
		<edge from-layer="1825" from-port="2" to-layer="1828" to-port="0"/>
		<edge from-layer="1826" from-port="0" to-layer="1827" to-port="0"/>
		<edge from-layer="1827" from-port="1" to-layer="1828" to-port="1"/>
		<edge from-layer="1828" from-port="2" to-layer="1831" to-port="0"/>
		<edge from-layer="1829" from-port="0" to-layer="1830" to-port="0"/>
		<edge from-layer="1830" from-port="1" to-layer="1831" to-port="1"/>
		<edge from-layer="1831" from-port="2" to-layer="1832" to-port="0"/>
		<edge from-layer="1832" from-port="1" to-layer="1835" to-port="0"/>
		<edge from-layer="1833" from-port="0" to-layer="1834" to-port="0"/>
		<edge from-layer="1834" from-port="1" to-layer="1835" to-port="1"/>
		<edge from-layer="1835" from-port="2" to-layer="1837" to-port="0"/>
		<edge from-layer="1835" from-port="2" to-layer="1840" to-port="0"/>
		<edge from-layer="1835" from-port="2" to-layer="1868" to-port="0"/>
		<edge from-layer="1836" from-port="0" to-layer="1837" to-port="1"/>
		<edge from-layer="1837" from-port="2" to-layer="1839" to-port="0"/>
		<edge from-layer="1838" from-port="0" to-layer="1839" to-port="1"/>
		<edge from-layer="1839" from-port="2" to-layer="1841" to-port="0"/>
		<edge from-layer="1840" from-port="1" to-layer="1841" to-port="1"/>
		<edge from-layer="1841" from-port="2" to-layer="1844" to-port="0"/>
		<edge from-layer="1842" from-port="0" to-layer="1843" to-port="0"/>
		<edge from-layer="1843" from-port="1" to-layer="1844" to-port="1"/>
		<edge from-layer="1844" from-port="2" to-layer="1847" to-port="0"/>
		<edge from-layer="1845" from-port="0" to-layer="1846" to-port="0"/>
		<edge from-layer="1846" from-port="1" to-layer="1847" to-port="1"/>
		<edge from-layer="1847" from-port="2" to-layer="1848" to-port="0"/>
		<edge from-layer="1848" from-port="1" to-layer="1851" to-port="0"/>
		<edge from-layer="1849" from-port="0" to-layer="1850" to-port="0"/>
		<edge from-layer="1850" from-port="1" to-layer="1851" to-port="1"/>
		<edge from-layer="1851" from-port="2" to-layer="1853" to-port="0"/>
		<edge from-layer="1851" from-port="2" to-layer="1856" to-port="0"/>
		<edge from-layer="1851" from-port="2" to-layer="1868" to-port="1"/>
		<edge from-layer="1852" from-port="0" to-layer="1853" to-port="1"/>
		<edge from-layer="1853" from-port="2" to-layer="1855" to-port="0"/>
		<edge from-layer="1854" from-port="0" to-layer="1855" to-port="1"/>
		<edge from-layer="1855" from-port="2" to-layer="1857" to-port="0"/>
		<edge from-layer="1856" from-port="1" to-layer="1857" to-port="1"/>
		<edge from-layer="1857" from-port="2" to-layer="1860" to-port="0"/>
		<edge from-layer="1858" from-port="0" to-layer="1859" to-port="0"/>
		<edge from-layer="1859" from-port="1" to-layer="1860" to-port="1"/>
		<edge from-layer="1860" from-port="2" to-layer="1863" to-port="0"/>
		<edge from-layer="1861" from-port="0" to-layer="1862" to-port="0"/>
		<edge from-layer="1862" from-port="1" to-layer="1863" to-port="1"/>
		<edge from-layer="1863" from-port="2" to-layer="1864" to-port="0"/>
		<edge from-layer="1864" from-port="1" to-layer="1867" to-port="0"/>
		<edge from-layer="1865" from-port="0" to-layer="1866" to-port="0"/>
		<edge from-layer="1866" from-port="1" to-layer="1867" to-port="1"/>
		<edge from-layer="1867" from-port="2" to-layer="1868" to-port="2"/>
		<edge from-layer="1868" from-port="3" to-layer="1869" to-port="0"/>
		<edge from-layer="1869" from-port="2" to-layer="1870" to-port="0"/>
		<edge from-layer="1869" from-port="2" to-layer="1875" to-port="0"/>
		<edge from-layer="1870" from-port="1" to-layer="1871" to-port="0"/>
		<edge from-layer="1871" from-port="1" to-layer="1873" to-port="0"/>
		<edge from-layer="1872" from-port="0" to-layer="1873" to-port="1"/>
		<edge from-layer="1872" from-port="0" to-layer="1875" to-port="2"/>
		<edge from-layer="1873" from-port="2" to-layer="1874" to-port="0"/>
		<edge from-layer="1874" from-port="1" to-layer="1875" to-port="1"/>
		<edge from-layer="1875" from-port="3" to-layer="1876" to-port="1"/>
		<edge from-layer="1876" from-port="2" to-layer="1878" to-port="0"/>
		<edge from-layer="1876" from-port="2" to-layer="1881" to-port="0"/>
		<edge from-layer="1876" from-port="2" to-layer="1926" to-port="1"/>
		<edge from-layer="1877" from-port="0" to-layer="1878" to-port="1"/>
		<edge from-layer="1878" from-port="2" to-layer="1880" to-port="0"/>
		<edge from-layer="1879" from-port="0" to-layer="1880" to-port="1"/>
		<edge from-layer="1880" from-port="2" to-layer="1882" to-port="0"/>
		<edge from-layer="1881" from-port="1" to-layer="1882" to-port="1"/>
		<edge from-layer="1882" from-port="2" to-layer="1885" to-port="0"/>
		<edge from-layer="1883" from-port="0" to-layer="1884" to-port="0"/>
		<edge from-layer="1884" from-port="1" to-layer="1885" to-port="1"/>
		<edge from-layer="1885" from-port="2" to-layer="1888" to-port="0"/>
		<edge from-layer="1886" from-port="0" to-layer="1887" to-port="0"/>
		<edge from-layer="1887" from-port="1" to-layer="1888" to-port="1"/>
		<edge from-layer="1888" from-port="2" to-layer="1889" to-port="0"/>
		<edge from-layer="1889" from-port="1" to-layer="1892" to-port="0"/>
		<edge from-layer="1890" from-port="0" to-layer="1891" to-port="0"/>
		<edge from-layer="1891" from-port="1" to-layer="1892" to-port="1"/>
		<edge from-layer="1892" from-port="2" to-layer="1894" to-port="0"/>
		<edge from-layer="1892" from-port="2" to-layer="1897" to-port="0"/>
		<edge from-layer="1892" from-port="2" to-layer="1925" to-port="0"/>
		<edge from-layer="1893" from-port="0" to-layer="1894" to-port="1"/>
		<edge from-layer="1894" from-port="2" to-layer="1896" to-port="0"/>
		<edge from-layer="1895" from-port="0" to-layer="1896" to-port="1"/>
		<edge from-layer="1896" from-port="2" to-layer="1898" to-port="0"/>
		<edge from-layer="1897" from-port="1" to-layer="1898" to-port="1"/>
		<edge from-layer="1898" from-port="2" to-layer="1901" to-port="0"/>
		<edge from-layer="1899" from-port="0" to-layer="1900" to-port="0"/>
		<edge from-layer="1900" from-port="1" to-layer="1901" to-port="1"/>
		<edge from-layer="1901" from-port="2" to-layer="1904" to-port="0"/>
		<edge from-layer="1902" from-port="0" to-layer="1903" to-port="0"/>
		<edge from-layer="1903" from-port="1" to-layer="1904" to-port="1"/>
		<edge from-layer="1904" from-port="2" to-layer="1905" to-port="0"/>
		<edge from-layer="1905" from-port="1" to-layer="1908" to-port="0"/>
		<edge from-layer="1906" from-port="0" to-layer="1907" to-port="0"/>
		<edge from-layer="1907" from-port="1" to-layer="1908" to-port="1"/>
		<edge from-layer="1908" from-port="2" to-layer="1910" to-port="0"/>
		<edge from-layer="1908" from-port="2" to-layer="1913" to-port="0"/>
		<edge from-layer="1908" from-port="2" to-layer="1925" to-port="1"/>
		<edge from-layer="1909" from-port="0" to-layer="1910" to-port="1"/>
		<edge from-layer="1910" from-port="2" to-layer="1912" to-port="0"/>
		<edge from-layer="1911" from-port="0" to-layer="1912" to-port="1"/>
		<edge from-layer="1912" from-port="2" to-layer="1914" to-port="0"/>
		<edge from-layer="1913" from-port="1" to-layer="1914" to-port="1"/>
		<edge from-layer="1914" from-port="2" to-layer="1917" to-port="0"/>
		<edge from-layer="1915" from-port="0" to-layer="1916" to-port="0"/>
		<edge from-layer="1916" from-port="1" to-layer="1917" to-port="1"/>
		<edge from-layer="1917" from-port="2" to-layer="1920" to-port="0"/>
		<edge from-layer="1918" from-port="0" to-layer="1919" to-port="0"/>
		<edge from-layer="1919" from-port="1" to-layer="1920" to-port="1"/>
		<edge from-layer="1920" from-port="2" to-layer="1921" to-port="0"/>
		<edge from-layer="1921" from-port="1" to-layer="1924" to-port="0"/>
		<edge from-layer="1922" from-port="0" to-layer="1923" to-port="0"/>
		<edge from-layer="1923" from-port="1" to-layer="1924" to-port="1"/>
		<edge from-layer="1924" from-port="2" to-layer="1925" to-port="2"/>
		<edge from-layer="1925" from-port="3" to-layer="1926" to-port="0"/>
		<edge from-layer="1926" from-port="2" to-layer="1927" to-port="0"/>
		<edge from-layer="1926" from-port="2" to-layer="1932" to-port="0"/>
		<edge from-layer="1927" from-port="1" to-layer="1928" to-port="0"/>
		<edge from-layer="1928" from-port="1" to-layer="1930" to-port="0"/>
		<edge from-layer="1929" from-port="0" to-layer="1930" to-port="1"/>
		<edge from-layer="1929" from-port="0" to-layer="1932" to-port="2"/>
		<edge from-layer="1930" from-port="2" to-layer="1931" to-port="0"/>
		<edge from-layer="1931" from-port="1" to-layer="1932" to-port="1"/>
		<edge from-layer="1932" from-port="3" to-layer="1933" to-port="1"/>
		<edge from-layer="1933" from-port="2" to-layer="1935" to-port="0"/>
		<edge from-layer="1933" from-port="2" to-layer="1938" to-port="0"/>
		<edge from-layer="1933" from-port="2" to-layer="1983" to-port="1"/>
		<edge from-layer="1934" from-port="0" to-layer="1935" to-port="1"/>
		<edge from-layer="1935" from-port="2" to-layer="1937" to-port="0"/>
		<edge from-layer="1936" from-port="0" to-layer="1937" to-port="1"/>
		<edge from-layer="1937" from-port="2" to-layer="1939" to-port="0"/>
		<edge from-layer="1938" from-port="1" to-layer="1939" to-port="1"/>
		<edge from-layer="1939" from-port="2" to-layer="1942" to-port="0"/>
		<edge from-layer="1940" from-port="0" to-layer="1941" to-port="0"/>
		<edge from-layer="1941" from-port="1" to-layer="1942" to-port="1"/>
		<edge from-layer="1942" from-port="2" to-layer="1945" to-port="0"/>
		<edge from-layer="1943" from-port="0" to-layer="1944" to-port="0"/>
		<edge from-layer="1944" from-port="1" to-layer="1945" to-port="1"/>
		<edge from-layer="1945" from-port="2" to-layer="1946" to-port="0"/>
		<edge from-layer="1946" from-port="1" to-layer="1949" to-port="0"/>
		<edge from-layer="1947" from-port="0" to-layer="1948" to-port="0"/>
		<edge from-layer="1948" from-port="1" to-layer="1949" to-port="1"/>
		<edge from-layer="1949" from-port="2" to-layer="1951" to-port="0"/>
		<edge from-layer="1949" from-port="2" to-layer="1954" to-port="0"/>
		<edge from-layer="1949" from-port="2" to-layer="1982" to-port="0"/>
		<edge from-layer="1950" from-port="0" to-layer="1951" to-port="1"/>
		<edge from-layer="1951" from-port="2" to-layer="1953" to-port="0"/>
		<edge from-layer="1952" from-port="0" to-layer="1953" to-port="1"/>
		<edge from-layer="1953" from-port="2" to-layer="1955" to-port="0"/>
		<edge from-layer="1954" from-port="1" to-layer="1955" to-port="1"/>
		<edge from-layer="1955" from-port="2" to-layer="1958" to-port="0"/>
		<edge from-layer="1956" from-port="0" to-layer="1957" to-port="0"/>
		<edge from-layer="1957" from-port="1" to-layer="1958" to-port="1"/>
		<edge from-layer="1958" from-port="2" to-layer="1961" to-port="0"/>
		<edge from-layer="1959" from-port="0" to-layer="1960" to-port="0"/>
		<edge from-layer="1960" from-port="1" to-layer="1961" to-port="1"/>
		<edge from-layer="1961" from-port="2" to-layer="1962" to-port="0"/>
		<edge from-layer="1962" from-port="1" to-layer="1965" to-port="0"/>
		<edge from-layer="1963" from-port="0" to-layer="1964" to-port="0"/>
		<edge from-layer="1964" from-port="1" to-layer="1965" to-port="1"/>
		<edge from-layer="1965" from-port="2" to-layer="1967" to-port="0"/>
		<edge from-layer="1965" from-port="2" to-layer="1970" to-port="0"/>
		<edge from-layer="1965" from-port="2" to-layer="1982" to-port="1"/>
		<edge from-layer="1966" from-port="0" to-layer="1967" to-port="1"/>
		<edge from-layer="1967" from-port="2" to-layer="1969" to-port="0"/>
		<edge from-layer="1968" from-port="0" to-layer="1969" to-port="1"/>
		<edge from-layer="1969" from-port="2" to-layer="1971" to-port="0"/>
		<edge from-layer="1970" from-port="1" to-layer="1971" to-port="1"/>
		<edge from-layer="1971" from-port="2" to-layer="1974" to-port="0"/>
		<edge from-layer="1972" from-port="0" to-layer="1973" to-port="0"/>
		<edge from-layer="1973" from-port="1" to-layer="1974" to-port="1"/>
		<edge from-layer="1974" from-port="2" to-layer="1977" to-port="0"/>
		<edge from-layer="1975" from-port="0" to-layer="1976" to-port="0"/>
		<edge from-layer="1976" from-port="1" to-layer="1977" to-port="1"/>
		<edge from-layer="1977" from-port="2" to-layer="1978" to-port="0"/>
		<edge from-layer="1978" from-port="1" to-layer="1981" to-port="0"/>
		<edge from-layer="1979" from-port="0" to-layer="1980" to-port="0"/>
		<edge from-layer="1980" from-port="1" to-layer="1981" to-port="1"/>
		<edge from-layer="1981" from-port="2" to-layer="1982" to-port="2"/>
		<edge from-layer="1982" from-port="3" to-layer="1983" to-port="0"/>
		<edge from-layer="1983" from-port="2" to-layer="1986" to-port="0"/>
		<edge from-layer="1984" from-port="0" to-layer="1985" to-port="0"/>
		<edge from-layer="1985" from-port="1" to-layer="1986" to-port="1"/>
		<edge from-layer="1986" from-port="2" to-layer="1989" to-port="0"/>
		<edge from-layer="1987" from-port="0" to-layer="1988" to-port="0"/>
		<edge from-layer="1988" from-port="1" to-layer="1989" to-port="1"/>
		<edge from-layer="1989" from-port="2" to-layer="1991" to-port="0"/>
		<edge from-layer="1989" from-port="2" to-layer="1994" to-port="0"/>
		<edge from-layer="1990" from-port="0" to-layer="1991" to-port="1"/>
		<edge from-layer="1991" from-port="2" to-layer="1993" to-port="0"/>
		<edge from-layer="1992" from-port="0" to-layer="1993" to-port="1"/>
		<edge from-layer="1993" from-port="2" to-layer="1995" to-port="0"/>
		<edge from-layer="1994" from-port="1" to-layer="1995" to-port="1"/>
		<edge from-layer="1995" from-port="2" to-layer="1998" to-port="0"/>
		<edge from-layer="1996" from-port="0" to-layer="1997" to-port="0"/>
		<edge from-layer="1997" from-port="1" to-layer="1998" to-port="1"/>
		<edge from-layer="1998" from-port="2" to-layer="2001" to-port="0"/>
		<edge from-layer="1999" from-port="0" to-layer="2000" to-port="0"/>
		<edge from-layer="2000" from-port="1" to-layer="2001" to-port="1"/>
		<edge from-layer="2001" from-port="2" to-layer="2002" to-port="0"/>
		<edge from-layer="2002" from-port="1" to-layer="2005" to-port="0"/>
		<edge from-layer="2003" from-port="0" to-layer="2004" to-port="0"/>
		<edge from-layer="2004" from-port="1" to-layer="2005" to-port="1"/>
		<edge from-layer="2005" from-port="2" to-layer="2008" to-port="0"/>
		<edge from-layer="2006" from-port="0" to-layer="2007" to-port="0"/>
		<edge from-layer="2007" from-port="1" to-layer="2008" to-port="1"/>
		<edge from-layer="2008" from-port="2" to-layer="2009" to-port="0"/>
	</edges>
	<meta_data>
		<MO_version value="2022.1.0-7019-cdb9bec7210-releases/2022/1"/>
		<Runtime_version value="2022.1.0-7019-cdb9bec7210-releases/2022/1"/>
		<legacy_path value="False"/>
		<cli_parameters>
			<caffe_parser_path value="DIR"/>
			<compress_fp16 value="True"/>
			<data_type value="FP32"/>
			<disable_nhwc_to_nchw value="False"/>
			<disable_omitting_optional value="False"/>
			<disable_resnet_optimization value="False"/>
			<disable_weights_compression value="False"/>
			<enable_concat_optimization value="False"/>
			<enable_flattening_nested_params value="False"/>
			<enable_ssd_gluoncv value="False"/>
			<extensions value="DIR"/>
			<framework value="onnx"/>
			<freeze_placeholder_with_value value="{}"/>
			<input_model value="DIR/HGFilter.onnx"/>
			<input_model_is_text value="False"/>
			<k value="DIR/CustomLayersMapping.xml"/>
			<layout value="()"/>
			<layout_values value="{}"/>
			<legacy_mxnet_model value="False"/>
			<log_level value="ERROR"/>
			<mean_scale_values value="{}"/>
			<mean_values value="()"/>
			<model_name value="HGFilter"/>
			<output_dir value="DIR"/>
			<placeholder_data_types value="{}"/>
			<progress value="False"/>
			<remove_memory value="False"/>
			<remove_output_softmax value="False"/>
			<reverse_input_channels value="False"/>
			<save_params_from_nd value="False"/>
			<scale_values value="()"/>
			<silent value="False"/>
			<source_layout value="()"/>
			<static_shape value="False"/>
			<stream_output value="False"/>
			<target_layout value="()"/>
			<transform value=""/>
			<use_legacy_frontend value="False"/>
			<use_new_frontend value="False"/>
			<unset unset_cli_parameters="batch, counts, disable_fusing, finegrain_fusing, input, input_checkpoint, input_meta_graph, input_proto, input_shape, input_symbol, mean_file, mean_file_offsets, nd_prefix_name, output, placeholder_shapes, pretrained_model_name, saved_model_dir, saved_model_tags, scale, tensorboard_logdir, tensorflow_custom_layer_libraries, tensorflow_custom_operations_config_update, tensorflow_object_detection_api_pipeline_config, tensorflow_use_custom_operations_config, transformations_config"/>
		</cli_parameters>
	</meta_data>
</net>
